…
stepsize: 15000
snapshot: 0
snapshot_prefix: "vgg16_rpn"
average_loss: 100
I0902 23:54:27.655222  8777 solver.cpp:81] Creating training net from train_net file: models/imagenet/VGG16/faster_rcnn_alt_opt/stage1_rpn_train.pt
I0902 23:54:27.655913  8777 net.cpp:49] Initializing net from parameters: 
name: "VGG_ILSVRC_16_layers"
state {
  phase: TRAIN
}
layer {
  name: "input-data"
  type: "Python"
  top: "data"
  top: "im_info"
  top: "gt_boxes"
  python_param {
    module: "roi_data_layer.layer"
    layer: "RoIDataLayer"
    param_str: "\'num_classes\': 2"
  }
}
layer {
  name: "conv1_1"
  type: "Convolution"
  bottom: "data"
  top: "conv1_1"
  param {
    lr_mult: 0
    decay_mult: 0
  }
  param {
    lr_mult: 0
    decay_mult: 0
  }
  convolution_param {
    num_output: 64
    pad: 1
    kernel_size: 3
  }
}
layer {
  name: "relu1_1"
  type: "ReLU"
  bottom: "conv1_1"
  top: "conv1_1"
}
layer {
  name: "conv1_2"
  type: "Convolution"
  bottom: "conv1_1"
  top: "conv1_2"
  param {
    lr_mult: 0
    decay_mult: 0
  }
  param {
    lr_mult: 0
    decay_mult: 0
  }
  convolution_param {
    num_output: 64
    pad: 1
    kernel_size: 3
  }
}
layer {
  name: "relu1_2"
  type: "ReLU"
  bottom: "conv1_2"
  top: "conv1_2"
}
layer {
  name: "pool1"
  type: "Pooling"
  bottom: "conv1_2"
  top: "pool1"
  pooling_param {
    pool: MAX
    kernel_size: 2
    stride: 2
  }
}
layer {
  name: "conv2_1"
  type: "Convolution"
  bottom: "pool1"
  top: "conv2_1"
  param {
    lr_mult: 0
    decay_mult: 0
  }
  param {
    lr_mult: 0
    decay_mult: 0
  }
  convolution_param {
    num_output: 128
    pad: 1
    kernel_size: 3
  }
}
layer {
  name: "relu2_1"
  type: "ReLU"
  bottom: "conv2_1"
  top: "conv2_1"
}
layer {
  name: "conv2_2"
  type: "Convolution"
  bottom: "conv2_1"
  top: "conv2_2"
  param {
    lr_mult: 0
    decay_mult: 0
  }
  param {
    lr_mult: 0
    decay_mult: 0
  }
  convolution_param {
    num_output: 128
    pad: 1
    kernel_size: 3
  }
}
layer {
  name: "relu2_2"
  type: "ReLU"
  bottom: "conv2_2"
  top: "conv2_2"
}
layer {
  name: "pool2"
  type: "Pooling"
  bottom: "conv2_2"
  top: "pool2"
  pooling_param {
    pool: MAX
    kernel_size: 2
    stride: 2
  }
}
layer {
  name: "conv3_1"
  type: "Convolution"
  bottom: "pool2"
  top: "conv3_1"
  param {
    lr_mult: 1
  }
  param {
    lr_mult: 2
  }
  convolution_param {
    num_output: 256
    pad: 1
    kernel_size: 3
  }
}
layer {
  name: "relu3_1"
  type: "ReLU"
  bottom: "conv3_1"
  top: "conv3_1"
}
layer {
  name: "conv3_2"
  type: "Convolution"
  bottom: "conv3_1"
  top: "conv3_2"
  param {
    lr_mult: 1
  }
  param {
    lr_mult: 2
  }
  convolution_param {
    num_output: 256
    pad: 1
    kernel_size: 3
  }
}
layer {
  name: "relu3_2"
  type: "ReLU"
  bottom: "conv3_2"
  top: "conv3_2"
}
layer {
  name: "conv3_3"
  type: "Convolution"
  bottom: "conv3_2"
  top: "conv3_3"
  param {
    lr_mult: 1
  }
  param {
    lr_mult: 2
  }
  convolution_param {
    num_output: 256
    pad: 1
    kernel_size: 3
  }
}
layer {
  name: "relu3_3"
  type: "ReLU"
  bottom: "conv3_3"
  top: "conv3_3"
}
layer {
  name: "pool3"
  type: "Pooling"
  bottom: "conv3_3"
  top: "pool3"
  pooling_param {
    pool: MAX
    kernel_size: 2
    stride: 2
  }
}
layer {
  name: "conv4_1"
  type: "Convolution"
  bottom: "pool3"
  top: "conv4_1"
  param {
    lr_mult: 1
  }
  param {
    lr_mult: 2
  }
  convolution_param {
    num_output: 512
    pad: 1
    kernel_size: 3
  }
}
layer {
  name: "relu4_1"
  type: "ReLU"
  bottom: "conv4_1"
  top: "conv4_1"
}
layer {
  name: "conv4_2"
  type: "Convolution"
  bottom: "conv4_1"
  top: "conv4_2"
  param {
    lr_mult: 1
  }
  param {
    lr_mult: 2
  }
  convolution_param {
    num_output: 512
    pad: 1
    kernel_size: 3
  }
}
layer {
  name: "relu4_2"
  type: "ReLU"
  bottom: "conv4_2"
  top: "conv4_2"
}
layer {
  name: "conv4_3"
  type: "Convolution"
  bottom: "conv4_2"
  top: "conv4_3"
  param {
    lr_mult: 1
  }
  param {
    lr_mult: 2
  }
  convolution_param {
    num_output: 512
    pad: 1
    kernel_size: 3
  }
}
layer {
  name: "relu4_3"
  type: "ReLU"
  bottom: "conv4_3"
  top: "conv4_3"
}
layer {
  name: "pool4"
  type: "Pooling"
  bottom: "conv4_3"
  top: "pool4"
  pooling_param {
    pool: MAX
    kernel_size: 2
    stride: 2
  }
}
layer {
  name: "conv5_1"
  type: "Convolution"
  bottom: "pool4"
  top: "conv5_1"
  param {
    lr_mult: 1
  }
  param {
    lr_mult: 2
  }
  convolution_param {
    num_output: 512
    pad: 1
    kernel_size: 3
  }
}
layer {
  name: "relu5_1"
  type: "ReLU"
  bottom: "conv5_1"
  top: "conv5_1"
}
layer {
  name: "conv5_2"
  type: "Convolution"
  bottom: "conv5_1"
  top: "conv5_2"
  param {
    lr_mult: 1
  }
  param {
    lr_mult: 2
  }
  convolution_param {
    num_output: 512
    pad: 1
    kernel_size: 3
  }
}
layer {
  name: "relu5_2"
  type: "ReLU"
  bottom: "conv5_2"
  top: "conv5_2"
}
layer {
  name: "conv5_3"
  type: "Convolution"
  bottom: "conv5_2"
  top: "conv5_3"
  param {
    lr_mult: 1
  }
  param {
    lr_mult: 2
  }
  convolution_param {
    num_output: 512
    pad: 1
    kernel_size: 3
  }
}
layer {
  name: "relu5_3"
  type: "ReLU"
  bottom: "conv5_3"
  top: "conv5_3"
}
layer {
  name: "rpn_conv/3x3"
  type: "Convolution"
  bottom: "conv5_3"
  top: "rpn/output"
  param {
    lr_mult: 1
  }
  param {
    lr_mult: 2
  }
  convolution_param {
    num_output: 512
    pad: 1
    kernel_size: 3
    stride: 1
    weight_filler {
      type: "gaussian"
      std: 0.01
    }
    bias_filler {
      type: "constant"
      value: 0
    }
  }
}
layer {
  name: "rpn_relu/3x3"
  type: "ReLU"
  bottom: "rpn/output"
  top: "rpn/output"
}
layer {
  name: "rpn_cls_score"
  type: "Convolution"
  bottom: "rpn/output"
  top: "rpn_cls_score"
  param {
    lr_mult: 1
  }
  param {
    lr_mult: 2
  }
  convolution_param {
    num_output: 18
    pad: 0
    kernel_size: 1
    stride: 1
    weight_filler {
      type: "gaussian"
      std: 0.01
    }
    bias_filler {
      type: "constant"
      value: 0
    }
  }
}
layer {
  name: "rpn_bbox_pred"
  type: "Convolution"
  bottom: "rpn/output"
  top: "rpn_bbox_pred"
  param {
    lr_mult: 1
  }
  param {
    lr_mult: 2
  }
  convolution_param {
    num_output: 36
    pad: 0
    kernel_size: 1
    stride: 1
    weight_filler {
      type: "gaussian"
      std: 0.01
    }
    bias_filler {
      type: "constant"
      value: 0
    }
  }
}
layer {
  name: "rpn_cls_score_reshape"
  type: "Reshape"
  bottom: "rpn_cls_score"
  top: "rpn_cls_score_reshape"
  reshape_param {
    shape {
      dim: 0
      dim: 2
      dim: -1
      dim: 0
    }
  }
}
layer {
  name: "rpn-data"
  type: "Python"
  bottom: "rpn_cls_score"
  bottom: "gt_boxes"
  bottom: "im_info"
  bottom: "data"
  top: "rpn_labels"
  top: "rpn_bbox_targets"
  top: "rpn_bbox_inside_weights"
  top: "rpn_bbox_outside_weights"
  python_param {
    module: "rpn.anchor_target_layer"
    layer: "AnchorTargetLayer"
    param_str: "\'feat_stride\': 16"
  }
}
layer {
  name: "rpn_loss_cls"
  type: "SoftmaxWithLoss"
  bottom: "rpn_cls_score_reshape"
  bottom: "rpn_labels"
  top: "rpn_cls_loss"
  loss_weight: 1
  propagate_down: true
  propagate_down: false
  loss_param {
    ignore_label: -1
    normalize: true
  }
}
layer {
  name: "rpn_loss_bbox"
  type: "SmoothL1Loss"
  bottom: "rpn_bbox_pred"
  bottom: "rpn_bbox_targets"
  bottom: "rpn_bbox_inside_weights"
  bottom: "rpn_bbox_outside_weights"
  top: "rpn_loss_bbox"
  loss_weight: 1
  smooth_l1_loss_param {
    sigma: 3
  }
}
layer {
  name: "dummy_roi_pool_conv5"
  type: "DummyData"
  top: "dummy_roi_pool_conv5"
  dummy_data_param {
    data_filler {
      type: "constant"
      value: 0
    }
    shape {
      dim: 1
      dim: 25088
    }
  }
}
layer {
  name: "fc6"
  type: "InnerProduct"
  bottom: "dummy_roi_pool_conv5"
  top: "fc6"
  param {
    lr_mult: 0
    decay_mult: 0
  }
  param {
    lr_mult: 0
    decay_mult: 0
  }
  inner_product_param {
    num_output: 4096
  }
}
layer {
  name: "relu6"
  type: "ReLU"
  bottom: "fc6"
  top: "fc6"
}
layer {
  name: "drop6"
  type: "Dropout"
  bottom: "fc6"
  top: "fc6"
  dropout_param {
    dropout_ratio: 0.5
  }
}
layer {
  name: "fc7"
  type: "InnerProduct"
  bottom: "fc6"
  top: "fc7"
  param {
    lr_mult: 0
    decay_mult: 0
  }
  param {
    lr_mult: 0
    decay_mult: 0
  }
  inner_product_param {
    num_output: 4096
  }
}
layer {
  name: "silence_fc7"
  type: "Silence"
  bottom: "fc7"
}
I0902 23:54:27.656028  8777 layer_factory.hpp:77] Creating layer input-data
I0902 23:54:27.656316  8777 net.cpp:106] Creating Layer input-data
I0902 23:54:27.656323  8777 net.cpp:411] input-data -> data
I0902 23:54:27.656330  8777 net.cpp:411] input-data -> im_info
I0902 23:54:27.656335  8777 net.cpp:411] input-data -> gt_boxes
I0902 23:54:27.885152  8777 net.cpp:150] Setting up input-data
I0902 23:54:27.885180  8777 net.cpp:157] Top shape: 1 3 300 1000 (900000)
I0902 23:54:27.885185  8777 net.cpp:157] Top shape: 1 3 (3)
I0902 23:54:27.885188  8777 net.cpp:157] Top shape: 1 4 (4)
I0902 23:54:27.885191  8777 net.cpp:165] Memory required for data: 3600028
I0902 23:54:27.885207  8777 layer_factory.hpp:77] Creating layer data_input-data_0_split
I0902 23:54:27.885217  8777 net.cpp:106] Creating Layer data_input-data_0_split
I0902 23:54:27.885236  8777 net.cpp:454] data_input-data_0_split <- data
I0902 23:54:27.885257  8777 net.cpp:411] data_input-data_0_split -> data_input-data_0_split_0
I0902 23:54:27.885267  8777 net.cpp:411] data_input-data_0_split -> data_input-data_0_split_1
I0902 23:54:27.885320  8777 net.cpp:150] Setting up data_input-data_0_split
I0902 23:54:27.885325  8777 net.cpp:157] Top shape: 1 3 300 1000 (900000)
I0902 23:54:27.885329  8777 net.cpp:157] Top shape: 1 3 300 1000 (900000)
I0902 23:54:27.885332  8777 net.cpp:165] Memory required for data: 10800028
I0902 23:54:27.885335  8777 layer_factory.hpp:77] Creating layer conv1_1
I0902 23:54:27.885344  8777 net.cpp:106] Creating Layer conv1_1
I0902 23:54:27.885346  8777 net.cpp:454] conv1_1 <- data_input-data_0_split_0
I0902 23:54:27.885365  8777 net.cpp:411] conv1_1 -> conv1_1
I0902 23:54:27.886600  8777 net.cpp:150] Setting up conv1_1
I0902 23:54:27.886610  8777 net.cpp:157] Top shape: 1 64 300 1000 (19200000)
I0902 23:54:27.886613  8777 net.cpp:165] Memory required for data: 87600028
I0902 23:54:27.886620  8777 layer_factory.hpp:77] Creating layer relu1_1
I0902 23:54:27.886626  8777 net.cpp:106] Creating Layer relu1_1
I0902 23:54:27.886629  8777 net.cpp:454] relu1_1 <- conv1_1
I0902 23:54:27.886633  8777 net.cpp:397] relu1_1 -> conv1_1 (in-place)
I0902 23:54:27.886638  8777 net.cpp:150] Setting up relu1_1
I0902 23:54:27.886642  8777 net.cpp:157] Top shape: 1 64 300 1000 (19200000)
I0902 23:54:27.886644  8777 net.cpp:165] Memory required for data: 164400028
I0902 23:54:27.886647  8777 layer_factory.hpp:77] Creating layer conv1_2
I0902 23:54:27.886653  8777 net.cpp:106] Creating Layer conv1_2
I0902 23:54:27.886656  8777 net.cpp:454] conv1_2 <- conv1_1
I0902 23:54:27.886662  8777 net.cpp:411] conv1_2 -> conv1_2
I0902 23:54:27.887814  8777 net.cpp:150] Setting up conv1_2
I0902 23:54:27.887822  8777 net.cpp:157] Top shape: 1 64 300 1000 (19200000)
I0902 23:54:27.887826  8777 net.cpp:165] Memory required for data: 241200028
I0902 23:54:27.887837  8777 layer_factory.hpp:77] Creating layer relu1_2
I0902 23:54:27.887842  8777 net.cpp:106] Creating Layer relu1_2
I0902 23:54:27.887845  8777 net.cpp:454] relu1_2 <- conv1_2
I0902 23:54:27.887850  8777 net.cpp:397] relu1_2 -> conv1_2 (in-place)
I0902 23:54:27.887854  8777 net.cpp:150] Setting up relu1_2
I0902 23:54:27.887858  8777 net.cpp:157] Top shape: 1 64 300 1000 (19200000)
I0902 23:54:27.887861  8777 net.cpp:165] Memory required for data: 318000028
I0902 23:54:27.887863  8777 layer_factory.hpp:77] Creating layer pool1
I0902 23:54:27.887867  8777 net.cpp:106] Creating Layer pool1
I0902 23:54:27.887869  8777 net.cpp:454] pool1 <- conv1_2
I0902 23:54:27.887873  8777 net.cpp:411] pool1 -> pool1
I0902 23:54:27.887903  8777 net.cpp:150] Setting up pool1
I0902 23:54:27.887908  8777 net.cpp:157] Top shape: 1 64 150 500 (4800000)
I0902 23:54:27.887910  8777 net.cpp:165] Memory required for data: 337200028
I0902 23:54:27.887913  8777 layer_factory.hpp:77] Creating layer conv2_1
I0902 23:54:27.887919  8777 net.cpp:106] Creating Layer conv2_1
I0902 23:54:27.887923  8777 net.cpp:454] conv2_1 <- pool1
I0902 23:54:27.887926  8777 net.cpp:411] conv2_1 -> conv2_1
I0902 23:54:27.888110  8777 net.cpp:150] Setting up conv2_1
I0902 23:54:27.888115  8777 net.cpp:157] Top shape: 1 128 150 500 (9600000)
I0902 23:54:27.888118  8777 net.cpp:165] Memory required for data: 375600028
I0902 23:54:27.888123  8777 layer_factory.hpp:77] Creating layer relu2_1
I0902 23:54:27.888129  8777 net.cpp:106] Creating Layer relu2_1
I0902 23:54:27.888131  8777 net.cpp:454] relu2_1 <- conv2_1
I0902 23:54:27.888135  8777 net.cpp:397] relu2_1 -> conv2_1 (in-place)
I0902 23:54:27.888139  8777 net.cpp:150] Setting up relu2_1
I0902 23:54:27.888142  8777 net.cpp:157] Top shape: 1 128 150 500 (9600000)
I0902 23:54:27.888145  8777 net.cpp:165] Memory required for data: 414000028
I0902 23:54:27.888147  8777 layer_factory.hpp:77] Creating layer conv2_2
I0902 23:54:27.888152  8777 net.cpp:106] Creating Layer conv2_2
I0902 23:54:27.888155  8777 net.cpp:454] conv2_2 <- conv2_1
I0902 23:54:27.888159  8777 net.cpp:411] conv2_2 -> conv2_2
I0902 23:54:27.888382  8777 net.cpp:150] Setting up conv2_2
I0902 23:54:27.888389  8777 net.cpp:157] Top shape: 1 128 150 500 (9600000)
I0902 23:54:27.888391  8777 net.cpp:165] Memory required for data: 452400028
I0902 23:54:27.888396  8777 layer_factory.hpp:77] Creating layer relu2_2
I0902 23:54:27.888399  8777 net.cpp:106] Creating Layer relu2_2
I0902 23:54:27.888402  8777 net.cpp:454] relu2_2 <- conv2_2
I0902 23:54:27.888406  8777 net.cpp:397] relu2_2 -> conv2_2 (in-place)
I0902 23:54:27.888409  8777 net.cpp:150] Setting up relu2_2
I0902 23:54:27.888413  8777 net.cpp:157] Top shape: 1 128 150 500 (9600000)
I0902 23:54:27.888415  8777 net.cpp:165] Memory required for data: 490800028
I0902 23:54:27.888417  8777 layer_factory.hpp:77] Creating layer pool2
I0902 23:54:27.888422  8777 net.cpp:106] Creating Layer pool2
I0902 23:54:27.888424  8777 net.cpp:454] pool2 <- conv2_2
I0902 23:54:27.888428  8777 net.cpp:411] pool2 -> pool2
I0902 23:54:27.888448  8777 net.cpp:150] Setting up pool2
I0902 23:54:27.888453  8777 net.cpp:157] Top shape: 1 128 75 250 (2400000)
I0902 23:54:27.888455  8777 net.cpp:165] Memory required for data: 500400028
I0902 23:54:27.888473  8777 layer_factory.hpp:77] Creating layer conv3_1
I0902 23:54:27.888478  8777 net.cpp:106] Creating Layer conv3_1
I0902 23:54:27.888479  8777 net.cpp:454] conv3_1 <- pool2
I0902 23:54:27.888496  8777 net.cpp:411] conv3_1 -> conv3_1
I0902 23:54:27.889330  8777 net.cpp:150] Setting up conv3_1
I0902 23:54:27.889341  8777 net.cpp:157] Top shape: 1 256 75 250 (4800000)
I0902 23:54:27.889344  8777 net.cpp:165] Memory required for data: 519600028
I0902 23:54:27.889350  8777 layer_factory.hpp:77] Creating layer relu3_1
I0902 23:54:27.889354  8777 net.cpp:106] Creating Layer relu3_1
I0902 23:54:27.889358  8777 net.cpp:454] relu3_1 <- conv3_1
I0902 23:54:27.889360  8777 net.cpp:397] relu3_1 -> conv3_1 (in-place)
I0902 23:54:27.889365  8777 net.cpp:150] Setting up relu3_1
I0902 23:54:27.889371  8777 net.cpp:157] Top shape: 1 256 75 250 (4800000)
I0902 23:54:27.889374  8777 net.cpp:165] Memory required for data: 538800028
I0902 23:54:27.889376  8777 layer_factory.hpp:77] Creating layer conv3_2
I0902 23:54:27.889382  8777 net.cpp:106] Creating Layer conv3_2
I0902 23:54:27.889385  8777 net.cpp:454] conv3_2 <- conv3_1
I0902 23:54:27.889389  8777 net.cpp:411] conv3_2 -> conv3_2
I0902 23:54:27.890280  8777 net.cpp:150] Setting up conv3_2
I0902 23:54:27.890290  8777 net.cpp:157] Top shape: 1 256 75 250 (4800000)
I0902 23:54:27.890291  8777 net.cpp:165] Memory required for data: 558000028
I0902 23:54:27.890296  8777 layer_factory.hpp:77] Creating layer relu3_2
I0902 23:54:27.890300  8777 net.cpp:106] Creating Layer relu3_2
I0902 23:54:27.890303  8777 net.cpp:454] relu3_2 <- conv3_2
I0902 23:54:27.890306  8777 net.cpp:397] relu3_2 -> conv3_2 (in-place)
I0902 23:54:27.890311  8777 net.cpp:150] Setting up relu3_2
I0902 23:54:27.890314  8777 net.cpp:157] Top shape: 1 256 75 250 (4800000)
I0902 23:54:27.890316  8777 net.cpp:165] Memory required for data: 577200028
I0902 23:54:27.890319  8777 layer_factory.hpp:77] Creating layer conv3_3
I0902 23:54:27.890326  8777 net.cpp:106] Creating Layer conv3_3
I0902 23:54:27.890328  8777 net.cpp:454] conv3_3 <- conv3_2
I0902 23:54:27.890332  8777 net.cpp:411] conv3_3 -> conv3_3
I0902 23:54:27.891227  8777 net.cpp:150] Setting up conv3_3
I0902 23:54:27.891235  8777 net.cpp:157] Top shape: 1 256 75 250 (4800000)
I0902 23:54:27.891238  8777 net.cpp:165] Memory required for data: 596400028
I0902 23:54:27.891242  8777 layer_factory.hpp:77] Creating layer relu3_3
I0902 23:54:27.891247  8777 net.cpp:106] Creating Layer relu3_3
I0902 23:54:27.891249  8777 net.cpp:454] relu3_3 <- conv3_3
I0902 23:54:27.891252  8777 net.cpp:397] relu3_3 -> conv3_3 (in-place)
I0902 23:54:27.891258  8777 net.cpp:150] Setting up relu3_3
I0902 23:54:27.891260  8777 net.cpp:157] Top shape: 1 256 75 250 (4800000)
I0902 23:54:27.891263  8777 net.cpp:165] Memory required for data: 615600028
I0902 23:54:27.891265  8777 layer_factory.hpp:77] Creating layer pool3
I0902 23:54:27.891270  8777 net.cpp:106] Creating Layer pool3
I0902 23:54:27.891273  8777 net.cpp:454] pool3 <- conv3_3
I0902 23:54:27.891276  8777 net.cpp:411] pool3 -> pool3
I0902 23:54:27.891299  8777 net.cpp:150] Setting up pool3
I0902 23:54:27.891304  8777 net.cpp:157] Top shape: 1 256 38 125 (1216000)
I0902 23:54:27.891305  8777 net.cpp:165] Memory required for data: 620464028
I0902 23:54:27.891309  8777 layer_factory.hpp:77] Creating layer conv4_1
I0902 23:54:27.891314  8777 net.cpp:106] Creating Layer conv4_1
I0902 23:54:27.891316  8777 net.cpp:454] conv4_1 <- pool3
I0902 23:54:27.891320  8777 net.cpp:411] conv4_1 -> conv4_1
I0902 23:54:27.893820  8777 net.cpp:150] Setting up conv4_1
I0902 23:54:27.893841  8777 net.cpp:157] Top shape: 1 512 38 125 (2432000)
I0902 23:54:27.893843  8777 net.cpp:165] Memory required for data: 630192028
I0902 23:54:27.893849  8777 layer_factory.hpp:77] Creating layer relu4_1
I0902 23:54:27.893857  8777 net.cpp:106] Creating Layer relu4_1
I0902 23:54:27.893860  8777 net.cpp:454] relu4_1 <- conv4_1
I0902 23:54:27.893865  8777 net.cpp:397] relu4_1 -> conv4_1 (in-place)
I0902 23:54:27.893872  8777 net.cpp:150] Setting up relu4_1
I0902 23:54:27.893874  8777 net.cpp:157] Top shape: 1 512 38 125 (2432000)
I0902 23:54:27.893877  8777 net.cpp:165] Memory required for data: 639920028
I0902 23:54:27.893879  8777 layer_factory.hpp:77] Creating layer conv4_2
I0902 23:54:27.893885  8777 net.cpp:106] Creating Layer conv4_2
I0902 23:54:27.893888  8777 net.cpp:454] conv4_2 <- conv4_1
I0902 23:54:27.893893  8777 net.cpp:411] conv4_2 -> conv4_2
I0902 23:54:27.896965  8777 net.cpp:150] Setting up conv4_2
I0902 23:54:27.896991  8777 net.cpp:157] Top shape: 1 512 38 125 (2432000)
I0902 23:54:27.896994  8777 net.cpp:165] Memory required for data: 649648028
I0902 23:54:27.897004  8777 layer_factory.hpp:77] Creating layer relu4_2
I0902 23:54:27.897011  8777 net.cpp:106] Creating Layer relu4_2
I0902 23:54:27.897022  8777 net.cpp:454] relu4_2 <- conv4_2
I0902 23:54:27.897027  8777 net.cpp:397] relu4_2 -> conv4_2 (in-place)
I0902 23:54:27.897033  8777 net.cpp:150] Setting up relu4_2
I0902 23:54:27.897037  8777 net.cpp:157] Top shape: 1 512 38 125 (2432000)
I0902 23:54:27.897039  8777 net.cpp:165] Memory required for data: 659376028
I0902 23:54:27.897042  8777 layer_factory.hpp:77] Creating layer conv4_3
I0902 23:54:27.897047  8777 net.cpp:106] Creating Layer conv4_3
I0902 23:54:27.897049  8777 net.cpp:454] conv4_3 <- conv4_2
I0902 23:54:27.897055  8777 net.cpp:411] conv4_3 -> conv4_3
I0902 23:54:27.900267  8777 net.cpp:150] Setting up conv4_3
I0902 23:54:27.900295  8777 net.cpp:157] Top shape: 1 512 38 125 (2432000)
I0902 23:54:27.900298  8777 net.cpp:165] Memory required for data: 669104028
I0902 23:54:27.900303  8777 layer_factory.hpp:77] Creating layer relu4_3
I0902 23:54:27.900311  8777 net.cpp:106] Creating Layer relu4_3
I0902 23:54:27.900315  8777 net.cpp:454] relu4_3 <- conv4_3
I0902 23:54:27.900319  8777 net.cpp:397] relu4_3 -> conv4_3 (in-place)
I0902 23:54:27.900326  8777 net.cpp:150] Setting up relu4_3
I0902 23:54:27.900329  8777 net.cpp:157] Top shape: 1 512 38 125 (2432000)
I0902 23:54:27.900332  8777 net.cpp:165] Memory required for data: 678832028
I0902 23:54:27.900334  8777 layer_factory.hpp:77] Creating layer pool4
I0902 23:54:27.900339  8777 net.cpp:106] Creating Layer pool4
I0902 23:54:27.900342  8777 net.cpp:454] pool4 <- conv4_3
I0902 23:54:27.900346  8777 net.cpp:411] pool4 -> pool4
I0902 23:54:27.900370  8777 net.cpp:150] Setting up pool4
I0902 23:54:27.900375  8777 net.cpp:157] Top shape: 1 512 19 63 (612864)
I0902 23:54:27.900377  8777 net.cpp:165] Memory required for data: 681283484
I0902 23:54:27.900379  8777 layer_factory.hpp:77] Creating layer conv5_1
I0902 23:54:27.900388  8777 net.cpp:106] Creating Layer conv5_1
I0902 23:54:27.900390  8777 net.cpp:454] conv5_1 <- pool4
I0902 23:54:27.900393  8777 net.cpp:411] conv5_1 -> conv5_1
I0902 23:54:27.903641  8777 net.cpp:150] Setting up conv5_1
I0902 23:54:27.903669  8777 net.cpp:157] Top shape: 1 512 19 63 (612864)
I0902 23:54:27.903672  8777 net.cpp:165] Memory required for data: 683734940
I0902 23:54:27.903678  8777 layer_factory.hpp:77] Creating layer relu5_1
I0902 23:54:27.903686  8777 net.cpp:106] Creating Layer relu5_1
I0902 23:54:27.903689  8777 net.cpp:454] relu5_1 <- conv5_1
I0902 23:54:27.903694  8777 net.cpp:397] relu5_1 -> conv5_1 (in-place)
I0902 23:54:27.903702  8777 net.cpp:150] Setting up relu5_1
I0902 23:54:27.903705  8777 net.cpp:157] Top shape: 1 512 19 63 (612864)
I0902 23:54:27.903707  8777 net.cpp:165] Memory required for data: 686186396
I0902 23:54:27.903710  8777 layer_factory.hpp:77] Creating layer conv5_2
I0902 23:54:27.903715  8777 net.cpp:106] Creating Layer conv5_2
I0902 23:54:27.903718  8777 net.cpp:454] conv5_2 <- conv5_1
I0902 23:54:27.903723  8777 net.cpp:411] conv5_2 -> conv5_2
I0902 23:54:27.906991  8777 net.cpp:150] Setting up conv5_2
I0902 23:54:27.907017  8777 net.cpp:157] Top shape: 1 512 19 63 (612864)
I0902 23:54:27.907021  8777 net.cpp:165] Memory required for data: 688637852
I0902 23:54:27.907025  8777 layer_factory.hpp:77] Creating layer relu5_2
I0902 23:54:27.907032  8777 net.cpp:106] Creating Layer relu5_2
I0902 23:54:27.907037  8777 net.cpp:454] relu5_2 <- conv5_2
I0902 23:54:27.907042  8777 net.cpp:397] relu5_2 -> conv5_2 (in-place)
I0902 23:54:27.907048  8777 net.cpp:150] Setting up relu5_2
I0902 23:54:27.907052  8777 net.cpp:157] Top shape: 1 512 19 63 (612864)
I0902 23:54:27.907054  8777 net.cpp:165] Memory required for data: 691089308
I0902 23:54:27.907058  8777 layer_factory.hpp:77] Creating layer conv5_3
I0902 23:54:27.907063  8777 net.cpp:106] Creating Layer conv5_3
I0902 23:54:27.907065  8777 net.cpp:454] conv5_3 <- conv5_2
I0902 23:54:27.907070  8777 net.cpp:411] conv5_3 -> conv5_3
I0902 23:54:27.910286  8777 net.cpp:150] Setting up conv5_3
I0902 23:54:27.910313  8777 net.cpp:157] Top shape: 1 512 19 63 (612864)
I0902 23:54:27.910316  8777 net.cpp:165] Memory required for data: 693540764
I0902 23:54:27.910328  8777 layer_factory.hpp:77] Creating layer relu5_3
I0902 23:54:27.910336  8777 net.cpp:106] Creating Layer relu5_3
I0902 23:54:27.910339  8777 net.cpp:454] relu5_3 <- conv5_3
I0902 23:54:27.910344  8777 net.cpp:397] relu5_3 -> conv5_3 (in-place)
I0902 23:54:27.910351  8777 net.cpp:150] Setting up relu5_3
I0902 23:54:27.910354  8777 net.cpp:157] Top shape: 1 512 19 63 (612864)
I0902 23:54:27.910357  8777 net.cpp:165] Memory required for data: 695992220
I0902 23:54:27.910360  8777 layer_factory.hpp:77] Creating layer rpn_conv/3x3
I0902 23:54:27.910372  8777 net.cpp:106] Creating Layer rpn_conv/3x3
I0902 23:54:27.910374  8777 net.cpp:454] rpn_conv/3x3 <- conv5_3
I0902 23:54:27.910378  8777 net.cpp:411] rpn_conv/3x3 -> rpn/output
I0902 23:54:27.954753  8777 net.cpp:150] Setting up rpn_conv/3x3
I0902 23:54:27.954782  8777 net.cpp:157] Top shape: 1 512 19 63 (612864)
I0902 23:54:27.954784  8777 net.cpp:165] Memory required for data: 698443676
I0902 23:54:27.954790  8777 layer_factory.hpp:77] Creating layer rpn_relu/3x3
I0902 23:54:27.954798  8777 net.cpp:106] Creating Layer rpn_relu/3x3
I0902 23:54:27.954802  8777 net.cpp:454] rpn_relu/3x3 <- rpn/output
I0902 23:54:27.954807  8777 net.cpp:397] rpn_relu/3x3 -> rpn/output (in-place)
I0902 23:54:27.954813  8777 net.cpp:150] Setting up rpn_relu/3x3
I0902 23:54:27.954816  8777 net.cpp:157] Top shape: 1 512 19 63 (612864)
I0902 23:54:27.954818  8777 net.cpp:165] Memory required for data: 700895132
I0902 23:54:27.954821  8777 layer_factory.hpp:77] Creating layer rpn/output_rpn_relu/3x3_0_split
I0902 23:54:27.954825  8777 net.cpp:106] Creating Layer rpn/output_rpn_relu/3x3_0_split
I0902 23:54:27.954828  8777 net.cpp:454] rpn/output_rpn_relu/3x3_0_split <- rpn/output
I0902 23:54:27.954831  8777 net.cpp:411] rpn/output_rpn_relu/3x3_0_split -> rpn/output_rpn_relu/3x3_0_split_0
I0902 23:54:27.954836  8777 net.cpp:411] rpn/output_rpn_relu/3x3_0_split -> rpn/output_rpn_relu/3x3_0_split_1
I0902 23:54:27.954859  8777 net.cpp:150] Setting up rpn/output_rpn_relu/3x3_0_split
I0902 23:54:27.954864  8777 net.cpp:157] Top shape: 1 512 19 63 (612864)
I0902 23:54:27.954866  8777 net.cpp:157] Top shape: 1 512 19 63 (612864)
I0902 23:54:27.954869  8777 net.cpp:165] Memory required for data: 705798044
I0902 23:54:27.954871  8777 layer_factory.hpp:77] Creating layer rpn_cls_score
I0902 23:54:27.954879  8777 net.cpp:106] Creating Layer rpn_cls_score
I0902 23:54:27.954883  8777 net.cpp:454] rpn_cls_score <- rpn/output_rpn_relu/3x3_0_split_0
I0902 23:54:27.954887  8777 net.cpp:411] rpn_cls_score -> rpn_cls_score
I0902 23:54:27.955191  8777 net.cpp:150] Setting up rpn_cls_score
I0902 23:54:27.955196  8777 net.cpp:157] Top shape: 1 18 19 63 (21546)
I0902 23:54:27.955199  8777 net.cpp:165] Memory required for data: 705884228
I0902 23:54:27.955204  8777 layer_factory.hpp:77] Creating layer rpn_cls_score_rpn_cls_score_0_split
I0902 23:54:27.955207  8777 net.cpp:106] Creating Layer rpn_cls_score_rpn_cls_score_0_split
I0902 23:54:27.955210  8777 net.cpp:454] rpn_cls_score_rpn_cls_score_0_split <- rpn_cls_score
I0902 23:54:27.955214  8777 net.cpp:411] rpn_cls_score_rpn_cls_score_0_split -> rpn_cls_score_rpn_cls_score_0_split_0
I0902 23:54:27.955219  8777 net.cpp:411] rpn_cls_score_rpn_cls_score_0_split -> rpn_cls_score_rpn_cls_score_0_split_1
I0902 23:54:27.955240  8777 net.cpp:150] Setting up rpn_cls_score_rpn_cls_score_0_split
I0902 23:54:27.955243  8777 net.cpp:157] Top shape: 1 18 19 63 (21546)
I0902 23:54:27.955246  8777 net.cpp:157] Top shape: 1 18 19 63 (21546)
I0902 23:54:27.955250  8777 net.cpp:165] Memory required for data: 706056596
I0902 23:54:27.955251  8777 layer_factory.hpp:77] Creating layer rpn_bbox_pred
I0902 23:54:27.955257  8777 net.cpp:106] Creating Layer rpn_bbox_pred
I0902 23:54:27.955260  8777 net.cpp:454] rpn_bbox_pred <- rpn/output_rpn_relu/3x3_0_split_1
I0902 23:54:27.955265  8777 net.cpp:411] rpn_bbox_pred -> rpn_bbox_pred
I0902 23:54:27.955755  8777 net.cpp:150] Setting up rpn_bbox_pred
I0902 23:54:27.955760  8777 net.cpp:157] Top shape: 1 36 19 63 (43092)
I0902 23:54:27.955770  8777 net.cpp:165] Memory required for data: 706228964
I0902 23:54:27.955773  8777 layer_factory.hpp:77] Creating layer rpn_cls_score_reshape
I0902 23:54:27.955782  8777 net.cpp:106] Creating Layer rpn_cls_score_reshape
I0902 23:54:27.955785  8777 net.cpp:454] rpn_cls_score_reshape <- rpn_cls_score_rpn_cls_score_0_split_0
I0902 23:54:27.955790  8777 net.cpp:411] rpn_cls_score_reshape -> rpn_cls_score_reshape
I0902 23:54:27.955806  8777 net.cpp:150] Setting up rpn_cls_score_reshape
I0902 23:54:27.955811  8777 net.cpp:157] Top shape: 1 2 171 63 (21546)
I0902 23:54:27.955812  8777 net.cpp:165] Memory required for data: 706315148
I0902 23:54:27.955816  8777 layer_factory.hpp:77] Creating layer rpn-data
I0902 23:54:27.956135  8777 net.cpp:106] Creating Layer rpn-data
I0902 23:54:27.956143  8777 net.cpp:454] rpn-data <- rpn_cls_score_rpn_cls_score_0_split_1
I0902 23:54:27.956147  8777 net.cpp:454] rpn-data <- gt_boxes
I0902 23:54:27.956151  8777 net.cpp:454] rpn-data <- im_info
I0902 23:54:27.956154  8777 net.cpp:454] rpn-data <- data_input-data_0_split_1
I0902 23:54:27.956158  8777 net.cpp:411] rpn-data -> rpn_labels
I0902 23:54:27.956163  8777 net.cpp:411] rpn-data -> rpn_bbox_targets
I0902 23:54:27.956168  8777 net.cpp:411] rpn-data -> rpn_bbox_inside_weights
I0902 23:54:27.956176  8777 net.cpp:411] rpn-data -> rpn_bbox_outside_weights
I0902 23:54:27.956668  8777 net.cpp:150] Setting up rpn-data
I0902 23:54:27.956678  8777 net.cpp:157] Top shape: 1 1 171 63 (10773)
I0902 23:54:27.956681  8777 net.cpp:157] Top shape: 1 36 19 63 (43092)
I0902 23:54:27.956686  8777 net.cpp:157] Top shape: 1 36 19 63 (43092)
I0902 23:54:27.956688  8777 net.cpp:157] Top shape: 1 36 19 63 (43092)
I0902 23:54:27.956691  8777 net.cpp:165] Memory required for data: 706875344
I0902 23:54:27.956694  8777 layer_factory.hpp:77] Creating layer rpn_loss_cls
I0902 23:54:27.956702  8777 net.cpp:106] Creating Layer rpn_loss_cls
I0902 23:54:27.956706  8777 net.cpp:454] rpn_loss_cls <- rpn_cls_score_reshape
I0902 23:54:27.956709  8777 net.cpp:454] rpn_loss_cls <- rpn_labels
I0902 23:54:27.956713  8777 net.cpp:411] rpn_loss_cls -> rpn_cls_loss
…
I0902 23:54:27.957052  8777 net.cpp:150] Setting up rpn_loss_bbox
I0902 23:54:27.957056  8777 net.cpp:157] Top shape: (1)
I0902 23:54:27.957059  8777 net.cpp:160]     with loss weight 1
I0902 23:54:27.957063  8777 net.cpp:165] Memory required for data: 706875352
I0902 23:54:27.957065  8777 layer_factory.hpp:77] Creating layer dummy_roi_pool_conv5
I0902 23:54:27.957074  8777 net.cpp:106] Creating Layer dummy_roi_pool_conv5
I0902 23:54:27.957078  8777 net.cpp:411] dummy_roi_pool_conv5 -> dummy_roi_pool_conv5
I0902 23:54:27.957125  8777 net.cpp:150] Setting up dummy_roi_pool_conv5
I0902 23:54:27.957130  8777 net.cpp:157] Top shape: 1 25088 (25088)
I0902 23:54:27.957134  8777 net.cpp:165] Memory required for data: 706975704
I0902 23:54:27.957135  8777 layer_factory.hpp:77] Creating layer fc6
I0902 23:54:27.957142  8777 net.cpp:106] Creating Layer fc6
I0902 23:54:27.957145  8777 net.cpp:454] fc6 <- dummy_roi_pool_conv5
I0902 23:54:27.957149  8777 net.cpp:411] fc6 -> fc6
I0902 23:54:28.132258  8777 net.cpp:150] Setting up fc6
I0902 23:54:28.132283  8777 net.cpp:157] Top shape: 1 4096 (4096)
I0902 23:54:28.132292  8777 net.cpp:165] Memory required for data: 706992088
I0902 23:54:28.132304  8777 layer_factory.hpp:77] Creating layer relu6
I0902 23:54:28.132313  8777 net.cpp:106] Creating Layer relu6
I0902 23:54:28.132316  8777 net.cpp:454] relu6 <- fc6
I0902 23:54:28.132320  8777 net.cpp:397] relu6 -> fc6 (in-place)
I0902 23:54:28.132328  8777 net.cpp:150] Setting up relu6
I0902 23:54:28.132330  8777 net.cpp:157] Top shape: 1 4096 (4096)
I0902 23:54:28.132333  8777 net.cpp:165] Memory required for data: 707008472
I0902 23:54:28.132335  8777 layer_factory.hpp:77] Creating layer drop6
I0902 23:54:28.132339  8777 net.cpp:106] Creating Layer drop6
I0902 23:54:28.132342  8777 net.cpp:454] drop6 <- fc6
I0902 23:54:28.132345  8777 net.cpp:397] drop6 -> fc6 (in-place)
I0902 23:54:28.132361  8777 net.cpp:150] Setting up drop6
I0902 23:54:28.132365  8777 net.cpp:157] Top shape: 1 4096 (4096)
I0902 23:54:28.132369  8777 net.cpp:165] Memory required for data: 707024856
I0902 23:54:28.132370  8777 layer_factory.hpp:77] Creating layer fc7
I0902 23:54:28.132376  8777 net.cpp:106] Creating Layer fc7
I0902 23:54:28.132378  8777 net.cpp:454] fc7 <- fc6
I0902 23:54:28.132382  8777 net.cpp:411] fc7 -> fc7
I0902 23:54:28.159396  8777 net.cpp:150] Setting up fc7
I0902 23:54:28.159427  8777 net.cpp:157] Top shape: 1 4096 (4096)
I0902 23:54:28.159430  8777 net.cpp:165] Memory required for data: 707041240
I0902 23:54:28.159437  8777 layer_factory.hpp:77] Creating layer silence_fc7
I0902 23:54:28.159445  8777 net.cpp:106] Creating Layer silence_fc7
I0902 23:54:28.159447  8777 net.cpp:454] silence_fc7 <- fc7
I0902 23:54:28.159452  8777 net.cpp:150] Setting up silence_fc7
I0902 23:54:28.159469  8777 net.cpp:165] Memory required for data: 707041240
…
Wrote snapshot to: /home/sensetime/detection/output/faster_rcnn_alt_opt/imagenet/vgg16_rpn_stage1_iter_20000.caffemodel
done solving
~~~~~~~~~~~~~~~~~~~~~~~~~~~~~~~~~~~~~~~~~~~~~~~~~~~~~~~~~~
Stage 1 RPN, generate proposals
~~~~~~~~~~~~~~~~~~~~~~~~~~~~~~~~~~~~~~~~~~~~~~~~~~~~~~~~~~
WARNING: Logging before InitGoogleLogging() is written to STDERR
I0903 00:36:36.680994  8864 net.cpp:49] Initializing net from parameters: 
name: "VGG_ILSVRC_16_layers"
input: "data"
input: "im_info"
state {
  phase: TEST
}
input_shape {
  dim: 1
  dim: 3
  dim: 224
  dim: 224
}
input_shape {
  dim: 1
  dim: 3
}
layer {
  name: "conv1_1"
  type: "Convolution"
  bottom: "data"
  top: "conv1_1"
  convolution_param {
    num_output: 64
    pad: 1
    kernel_size: 3
  }
}
layer {
  name: "relu1_1"
  type: "ReLU"
  bottom: "conv1_1"
  top: "conv1_1"
}
layer {
  name: "conv1_2"
  type: "Convolution"
  bottom: "conv1_1"
  top: "conv1_2"
  convolution_param {
    num_output: 64
    pad: 1
    kernel_size: 3
  }
}
layer {
  name: "relu1_2"
  type: "ReLU"
  bottom: "conv1_2"
  top: "conv1_2"
}
layer {
  name: "pool1"
  type: "Pooling"
  bottom: "conv1_2"
  top: "pool1"
  pooling_param {
    pool: MAX
    kernel_size: 2
    stride: 2
  }
}
layer {
  name: "conv2_1"
  type: "Convolution"
  bottom: "pool1"
  top: "conv2_1"
  convolution_param {
    num_output: 128
    pad: 1
    kernel_size: 3
  }
}
layer {
  name: "relu2_1"
  type: "ReLU"
  bottom: "conv2_1"
  top: "conv2_1"
}
layer {
  name: "conv2_2"
  type: "Convolution"
  bottom: "conv2_1"
  top: "conv2_2"
  convolution_param {
    num_output: 128
    pad: 1
    kernel_size: 3
  }
}
layer {
  name: "relu2_2"
  type: "ReLU"
  bottom: "conv2_2"
  top: "conv2_2"
}
layer {
  name: "pool2"
  type: "Pooling"
  bottom: "conv2_2"
  top: "pool2"
  pooling_param {
    pool: MAX
    kernel_size: 2
    stride: 2
  }
}
layer {
  name: "conv3_1"
  type: "Convolution"
  bottom: "pool2"
  top: "conv3_1"
  convolution_param {
    num_output: 256
    pad: 1
    kernel_size: 3
  }
}
layer {
  name: "relu3_1"
  type: "ReLU"
  bottom: "conv3_1"
  top: "conv3_1"
}
layer {
  name: "conv3_2"
  type: "Convolution"
  bottom: "conv3_1"
  top: "conv3_2"
  convolution_param {
    num_output: 256
    pad: 1
    kernel_size: 3
  }
}
layer {
  name: "relu3_2"
  type: "ReLU"
  bottom: "conv3_2"
  top: "conv3_2"
}
layer {
  name: "conv3_3"
  type: "Convolution"
  bottom: "conv3_2"
  top: "conv3_3"
  convolution_param {
    num_output: 256
    pad: 1
    kernel_size: 3
  }
}
layer {
  name: "relu3_3"
  type: "ReLU"
  bottom: "conv3_3"
  top: "conv3_3"
}
layer {
  name: "pool3"
  type: "Pooling"
  bottom: "conv3_3"
  top: "pool3"
  pooling_param {
    pool: MAX
    kernel_size: 2
    stride: 2
  }
}
layer {
  name: "conv4_1"
  type: "Convolution"
  bottom: "pool3"
  top: "conv4_1"
  convolution_param {
    num_output: 512
    pad: 1
    kernel_size: 3
  }
}
layer {
  name: "relu4_1"
  type: "ReLU"
  bottom: "conv4_1"
  top: "conv4_1"
}
layer {
  name: "conv4_2"
  type: "Convolution"
  bottom: "conv4_1"
  top: "conv4_2"
  convolution_param {
    num_output: 512
    pad: 1
    kernel_size: 3
  }
}
layer {
  name: "relu4_2"
  type: "ReLU"
  bottom: "conv4_2"
  top: "conv4_2"
}
layer {
  name: "conv4_3"
  type: "Convolution"
  bottom: "conv4_2"
  top: "conv4_3"
  convolution_param {
    num_output: 512
    pad: 1
    kernel_size: 3
  }
}
layer {
  name: "relu4_3"
  type: "ReLU"
  bottom: "conv4_3"
  top: "conv4_3"
}
layer {
  name: "pool4"
  type: "Pooling"
  bottom: "conv4_3"
  top: "pool4"
  pooling_param {
    pool: MAX
    kernel_size: 2
    stride: 2
  }
}
layer {
  name: "conv5_1"
  type: "Convolution"
  bottom: "pool4"
  top: "conv5_1"
  convolution_param {
    num_output: 512
    pad: 1
    kernel_size: 3
  }
}
layer {
  name: "relu5_1"
  type: "ReLU"
  bottom: "conv5_1"
  top: "conv5_1"
}
layer {
  name: "conv5_2"
  type: "Convolution"
  bottom: "conv5_1"
  top: "conv5_2"
  convolution_param {
    num_output: 512
    pad: 1
    kernel_size: 3
  }
}
layer {
  name: "relu5_2"
  type: "ReLU"
  bottom: "conv5_2"
  top: "conv5_2"
}
layer {
  name: "conv5_3"
  type: "Convolution"
  bottom: "conv5_2"
  top: "conv5_3"
  convolution_param {
    num_output: 512
    pad: 1
    kernel_size: 3
  }
}
layer {
  name: "relu5_3"
  type: "ReLU"
  bottom: "conv5_3"
  top: "conv5_3"
}
layer {
  name: "rpn_conv/3x3"
  type: "Convolution"
  bottom: "conv5_3"
  top: "rpn/output"
  convolution_param {
    num_output: 512
    pad: 1
    kernel_size: 3
    stride: 1
  }
}
layer {
  name: "rpn_relu/3x3"
  type: "ReLU"
  bottom: "rpn/output"
  top: "rpn/output"
}
layer {
  name: "rpn_cls_score"
  type: "Convolution"
  bottom: "rpn/output"
  top: "rpn_cls_score"
  convolution_param {
    num_output: 18
    pad: 0
    kernel_size: 1
    stride: 1
  }
}
layer {
  name: "rpn_bbox_pred"
  type: "Convolution"
  bottom: "rpn/output"
  top: "rpn_bbox_pred"
  convolution_param {
    num_output: 36
    pad: 0
    kernel_size: 1
    stride: 1
  }
}
layer {
  name: "rpn_cls_score_reshape"
  type: "Reshape"
  bottom: "rpn_cls_score"
  top: "rpn_cls_score_reshape"
  reshape_param {
    shape {
      dim: 0
      dim: 2
      dim: -1
      dim: 0
    }
  }
}
layer {
  name: "rpn_cls_prob"
  type: "Softmax"
  bottom: "rpn_cls_score_reshape"
  top: "rpn_cls_prob"
}
layer {
  name: "rpn_cls_prob_reshape"
  type: "Reshape"
  bottom: "rpn_cls_prob"
  top: "rpn_cls_prob_reshape"
  reshape_param {
    shape {
      dim: 0
      dim: 18
      dim: -1
      dim: 0
    }
  }
}
layer {
  name: "proposal"
  type: "Python"
  bottom: "rpn_cls_prob_reshape"
  bottom: "rpn_bbox_pred"
  bottom: "im_info"
  top: "rois"
  top: "scores"
  python_param {
    module: "rpn.proposal_layer"
    layer: "ProposalLayer"
    param_str: "\'feat_stride\': 16"
  }
}
I0903 00:36:36.681088  8864 net.cpp:413] Input 0 -> data
I0903 00:36:36.918115  8864 net.cpp:413] Input 1 -> im_info
I0903 00:36:36.918162  8864 layer_factory.hpp:77] Creating layer conv1_1
I0903 00:36:36.918179  8864 net.cpp:106] Creating Layer conv1_1
I0903 00:36:36.918182  8864 net.cpp:454] conv1_1 <- data
I0903 00:36:36.918189  8864 net.cpp:411] conv1_1 -> conv1_1
I0903 00:36:36.919406  8864 net.cpp:150] Setting up conv1_1
I0903 00:36:36.919419  8864 net.cpp:157] Top shape: 1 64 224 224 (3211264)
I0903 00:36:36.919421  8864 net.cpp:165] Memory required for data: 12845056
I0903 00:36:36.919430  8864 layer_factory.hpp:77] Creating layer relu1_1
I0903 00:36:36.919436  8864 net.cpp:106] Creating Layer relu1_1
I0903 00:36:36.919440  8864 net.cpp:454] relu1_1 <- conv1_1
I0903 00:36:36.919447  8864 net.cpp:397] relu1_1 -> conv1_1 (in-place)
I0903 00:36:36.919452  8864 net.cpp:150] Setting up relu1_1
I0903 00:36:36.919471  8864 net.cpp:157] Top shape: 1 64 224 224 (3211264)
I0903 00:36:36.919474  8864 net.cpp:165] Memory required for data: 25690112
I0903 00:36:36.919477  8864 layer_factory.hpp:77] Creating layer conv1_2
I0903 00:36:36.919495  8864 net.cpp:106] Creating Layer conv1_2
I0903 00:36:36.919497  8864 net.cpp:454] conv1_2 <- conv1_1
I0903 00:36:36.919502  8864 net.cpp:411] conv1_2 -> conv1_2
I0903 00:36:36.919708  8864 net.cpp:150] Setting up conv1_2
I0903 00:36:36.919896  8864 net.cpp:157] Top shape: 1 64 224 224 (3211264)
I0903 00:36:36.919899  8864 net.cpp:165] Memory required for data: 38535168
I0903 00:36:36.919905  8864 layer_factory.hpp:77] Creating layer relu1_2
I0903 00:36:36.919910  8864 net.cpp:106] Creating Layer relu1_2
I0903 00:36:36.919914  8864 net.cpp:454] relu1_2 <- conv1_2
I0903 00:36:36.919916  8864 net.cpp:397] relu1_2 -> conv1_2 (in-place)
I0903 00:36:36.919921  8864 net.cpp:150] Setting up relu1_2
I0903 00:36:36.919924  8864 net.cpp:157] Top shape: 1 64 224 224 (3211264)
I0903 00:36:36.919927  8864 net.cpp:165] Memory required for data: 51380224
I0903 00:36:36.919929  8864 layer_factory.hpp:77] Creating layer pool1
I0903 00:36:36.919935  8864 net.cpp:106] Creating Layer pool1
I0903 00:36:36.919937  8864 net.cpp:454] pool1 <- conv1_2
I0903 00:36:36.919941  8864 net.cpp:411] pool1 -> pool1
I0903 00:36:36.919971  8864 net.cpp:150] Setting up pool1
I0903 00:36:36.919975  8864 net.cpp:157] Top shape: 1 64 112 112 (802816)
I0903 00:36:36.919978  8864 net.cpp:165] Memory required for data: 54591488
I0903 00:36:36.919981  8864 layer_factory.hpp:77] Creating layer conv2_1
I0903 00:36:36.919986  8864 net.cpp:106] Creating Layer conv2_1
I0903 00:36:36.919988  8864 net.cpp:454] conv2_1 <- pool1
I0903 00:36:36.919991  8864 net.cpp:411] conv2_1 -> conv2_1
I0903 00:36:36.921053  8864 net.cpp:150] Setting up conv2_1
I0903 00:36:36.921062  8864 net.cpp:157] Top shape: 1 128 112 112 (1605632)
I0903 00:36:36.921066  8864 net.cpp:165] Memory required for data: 61014016
I0903 00:36:36.921072  8864 layer_factory.hpp:77] Creating layer relu2_1
I0903 00:36:36.921077  8864 net.cpp:106] Creating Layer relu2_1
I0903 00:36:36.921080  8864 net.cpp:454] relu2_1 <- conv2_1
I0903 00:36:36.921084  8864 net.cpp:397] relu2_1 -> conv2_1 (in-place)
I0903 00:36:36.921088  8864 net.cpp:150] Setting up relu2_1
I0903 00:36:36.921092  8864 net.cpp:157] Top shape: 1 128 112 112 (1605632)
I0903 00:36:36.921094  8864 net.cpp:165] Memory required for data: 67436544
I0903 00:36:36.921097  8864 layer_factory.hpp:77] Creating layer conv2_2
I0903 00:36:36.921102  8864 net.cpp:106] Creating Layer conv2_2
I0903 00:36:36.921104  8864 net.cpp:454] conv2_2 <- conv2_1
I0903 00:36:36.921108  8864 net.cpp:411] conv2_2 -> conv2_2
I0903 00:36:36.921326  8864 net.cpp:150] Setting up conv2_2
I0903 00:36:36.921334  8864 net.cpp:157] Top shape: 1 128 112 112 (1605632)
I0903 00:36:36.921336  8864 net.cpp:165] Memory required for data: 73859072
I0903 00:36:36.921340  8864 layer_factory.hpp:77] Creating layer relu2_2
I0903 00:36:36.921345  8864 net.cpp:106] Creating Layer relu2_2
I0903 00:36:36.921349  8864 net.cpp:454] relu2_2 <- conv2_2
I0903 00:36:36.921351  8864 net.cpp:397] relu2_2 -> conv2_2 (in-place)
I0903 00:36:36.921355  8864 net.cpp:150] Setting up relu2_2
I0903 00:36:36.921360  8864 net.cpp:157] Top shape: 1 128 112 112 (1605632)
I0903 00:36:36.921361  8864 net.cpp:165] Memory required for data: 80281600
I0903 00:36:36.921365  8864 layer_factory.hpp:77] Creating layer pool2
I0903 00:36:36.921370  8864 net.cpp:106] Creating Layer pool2
I0903 00:36:36.921371  8864 net.cpp:454] pool2 <- conv2_2
I0903 00:36:36.921375  8864 net.cpp:411] pool2 -> pool2
I0903 00:36:36.921396  8864 net.cpp:150] Setting up pool2
I0903 00:36:36.921401  8864 net.cpp:157] Top shape: 1 128 56 56 (401408)
I0903 00:36:36.921403  8864 net.cpp:165] Memory required for data: 81887232
I0903 00:36:36.921406  8864 layer_factory.hpp:77] Creating layer conv3_1
I0903 00:36:36.921414  8864 net.cpp:106] Creating Layer conv3_1
I0903 00:36:36.921417  8864 net.cpp:454] conv3_1 <- pool2
I0903 00:36:36.921422  8864 net.cpp:411] conv3_1 -> conv3_1
I0903 00:36:36.921691  8864 net.cpp:150] Setting up conv3_1
I0903 00:36:36.921697  8864 net.cpp:157] Top shape: 1 256 56 56 (802816)
I0903 00:36:36.921700  8864 net.cpp:165] Memory required for data: 85098496
I0903 00:36:36.921720  8864 layer_factory.hpp:77] Creating layer relu3_1
I0903 00:36:36.921725  8864 net.cpp:106] Creating Layer relu3_1
I0903 00:36:36.921726  8864 net.cpp:454] relu3_1 <- conv3_1
I0903 00:36:36.921730  8864 net.cpp:397] relu3_1 -> conv3_1 (in-place)
I0903 00:36:36.921736  8864 net.cpp:150] Setting up relu3_1
I0903 00:36:36.921738  8864 net.cpp:157] Top shape: 1 256 56 56 (802816)
I0903 00:36:36.921741  8864 net.cpp:165] Memory required for data: 88309760
I0903 00:36:36.921743  8864 layer_factory.hpp:77] Creating layer conv3_2
I0903 00:36:36.921747  8864 net.cpp:106] Creating Layer conv3_2
I0903 00:36:36.921751  8864 net.cpp:454] conv3_2 <- conv3_1
I0903 00:36:36.921754  8864 net.cpp:411] conv3_2 -> conv3_2
I0903 00:36:36.922644  8864 net.cpp:150] Setting up conv3_2
I0903 00:36:36.922654  8864 net.cpp:157] Top shape: 1 256 56 56 (802816)
I0903 00:36:36.922657  8864 net.cpp:165] Memory required for data: 91521024
I0903 00:36:36.922662  8864 layer_factory.hpp:77] Creating layer relu3_2
I0903 00:36:36.922667  8864 net.cpp:106] Creating Layer relu3_2
I0903 00:36:36.922670  8864 net.cpp:454] relu3_2 <- conv3_2
I0903 00:36:36.922674  8864 net.cpp:397] relu3_2 -> conv3_2 (in-place)
I0903 00:36:36.922679  8864 net.cpp:150] Setting up relu3_2
I0903 00:36:36.922683  8864 net.cpp:157] Top shape: 1 256 56 56 (802816)
I0903 00:36:36.922685  8864 net.cpp:165] Memory required for data: 94732288
I0903 00:36:36.922688  8864 layer_factory.hpp:77] Creating layer conv3_3
I0903 00:36:36.922693  8864 net.cpp:106] Creating Layer conv3_3
I0903 00:36:36.922695  8864 net.cpp:454] conv3_3 <- conv3_2
I0903 00:36:36.922699  8864 net.cpp:411] conv3_3 -> conv3_3
I0903 00:36:36.923650  8864 net.cpp:150] Setting up conv3_3
I0903 00:36:36.923658  8864 net.cpp:157] Top shape: 1 256 56 56 (802816)
I0903 00:36:36.923661  8864 net.cpp:165] Memory required for data: 97943552
I0903 00:36:36.923666  8864 layer_factory.hpp:77] Creating layer relu3_3
I0903 00:36:36.923671  8864 net.cpp:106] Creating Layer relu3_3
I0903 00:36:36.923674  8864 net.cpp:454] relu3_3 <- conv3_3
I0903 00:36:36.923677  8864 net.cpp:397] relu3_3 -> conv3_3 (in-place)
I0903 00:36:36.923682  8864 net.cpp:150] Setting up relu3_3
I0903 00:36:36.923686  8864 net.cpp:157] Top shape: 1 256 56 56 (802816)
I0903 00:36:36.923688  8864 net.cpp:165] Memory required for data: 101154816
I0903 00:36:36.923691  8864 layer_factory.hpp:77] Creating layer pool3
I0903 00:36:36.923696  8864 net.cpp:106] Creating Layer pool3
I0903 00:36:36.923699  8864 net.cpp:454] pool3 <- conv3_3
I0903 00:36:36.923702  8864 net.cpp:411] pool3 -> pool3
I0903 00:36:36.923725  8864 net.cpp:150] Setting up pool3
I0903 00:36:36.923729  8864 net.cpp:157] Top shape: 1 256 28 28 (200704)
I0903 00:36:36.923732  8864 net.cpp:165] Memory required for data: 101957632
I0903 00:36:36.923734  8864 layer_factory.hpp:77] Creating layer conv4_1
I0903 00:36:36.923738  8864 net.cpp:106] Creating Layer conv4_1
I0903 00:36:36.923741  8864 net.cpp:454] conv4_1 <- pool3
I0903 00:36:36.923745  8864 net.cpp:411] conv4_1 -> conv4_1
I0903 00:36:36.925918  8864 net.cpp:150] Setting up conv4_1
I0903 00:36:36.925938  8864 net.cpp:157] Top shape: 1 512 28 28 (401408)
I0903 00:36:36.925941  8864 net.cpp:165] Memory required for data: 103563264
I0903 00:36:36.925946  8864 layer_factory.hpp:77] Creating layer relu4_1
I0903 00:36:36.925953  8864 net.cpp:106] Creating Layer relu4_1
I0903 00:36:36.925956  8864 net.cpp:454] relu4_1 <- conv4_1
I0903 00:36:36.925962  8864 net.cpp:397] relu4_1 -> conv4_1 (in-place)
I0903 00:36:36.925968  8864 net.cpp:150] Setting up relu4_1
I0903 00:36:36.925971  8864 net.cpp:157] Top shape: 1 512 28 28 (401408)
I0903 00:36:36.925981  8864 net.cpp:165] Memory required for data: 105168896
I0903 00:36:36.925982  8864 layer_factory.hpp:77] Creating layer conv4_2
I0903 00:36:36.925987  8864 net.cpp:106] Creating Layer conv4_2
I0903 00:36:36.925990  8864 net.cpp:454] conv4_2 <- conv4_1
I0903 00:36:36.925994  8864 net.cpp:411] conv4_2 -> conv4_2
I0903 00:36:36.929149  8864 net.cpp:150] Setting up conv4_2
I0903 00:36:36.929175  8864 net.cpp:157] Top shape: 1 512 28 28 (401408)
I0903 00:36:36.929178  8864 net.cpp:165] Memory required for data: 106774528
I0903 00:36:36.929188  8864 layer_factory.hpp:77] Creating layer relu4_2
I0903 00:36:36.929217  8864 net.cpp:106] Creating Layer relu4_2
I0903 00:36:36.929222  8864 net.cpp:454] relu4_2 <- conv4_2
I0903 00:36:36.929245  8864 net.cpp:397] relu4_2 -> conv4_2 (in-place)
I0903 00:36:36.929270  8864 net.cpp:150] Setting up relu4_2
I0903 00:36:36.929286  8864 net.cpp:157] Top shape: 1 512 28 28 (401408)
I0903 00:36:36.929289  8864 net.cpp:165] Memory required for data: 108380160
I0903 00:36:36.929292  8864 layer_factory.hpp:77] Creating layer conv4_3
I0903 00:36:36.929311  8864 net.cpp:106] Creating Layer conv4_3
I0903 00:36:36.929314  8864 net.cpp:454] conv4_3 <- conv4_2
I0903 00:36:36.929317  8864 net.cpp:411] conv4_3 -> conv4_3
I0903 00:36:36.932546  8864 net.cpp:150] Setting up conv4_3
I0903 00:36:36.932571  8864 net.cpp:157] Top shape: 1 512 28 28 (401408)
I0903 00:36:36.932574  8864 net.cpp:165] Memory required for data: 109985792
I0903 00:36:36.932580  8864 layer_factory.hpp:77] Creating layer relu4_3
I0903 00:36:36.932586  8864 net.cpp:106] Creating Layer relu4_3
I0903 00:36:36.932590  8864 net.cpp:454] relu4_3 <- conv4_3
I0903 00:36:36.932595  8864 net.cpp:397] relu4_3 -> conv4_3 (in-place)
I0903 00:36:36.932600  8864 net.cpp:150] Setting up relu4_3
I0903 00:36:36.932603  8864 net.cpp:157] Top shape: 1 512 28 28 (401408)
I0903 00:36:36.932606  8864 net.cpp:165] Memory required for data: 111591424
I0903 00:36:36.932608  8864 layer_factory.hpp:77] Creating layer pool4
I0903 00:36:36.932615  8864 net.cpp:106] Creating Layer pool4
I0903 00:36:36.932616  8864 net.cpp:454] pool4 <- conv4_3
I0903 00:36:36.932621  8864 net.cpp:411] pool4 -> pool4
I0903 00:36:36.932646  8864 net.cpp:150] Setting up pool4
I0903 00:36:36.932651  8864 net.cpp:157] Top shape: 1 512 14 14 (100352)
I0903 00:36:36.932652  8864 net.cpp:165] Memory required for data: 111992832
I0903 00:36:36.932654  8864 layer_factory.hpp:77] Creating layer conv5_1
I0903 00:36:36.932660  8864 net.cpp:106] Creating Layer conv5_1
I0903 00:36:36.932663  8864 net.cpp:454] conv5_1 <- pool4
I0903 00:36:36.932667  8864 net.cpp:411] conv5_1 -> conv5_1
I0903 00:36:36.936028  8864 net.cpp:150] Setting up conv5_1
I0903 00:36:36.936054  8864 net.cpp:157] Top shape: 1 512 14 14 (100352)
I0903 00:36:36.936058  8864 net.cpp:165] Memory required for data: 112394240
I0903 00:36:36.936064  8864 layer_factory.hpp:77] Creating layer relu5_1
I0903 00:36:36.936071  8864 net.cpp:106] Creating Layer relu5_1
I0903 00:36:36.936075  8864 net.cpp:454] relu5_1 <- conv5_1
I0903 00:36:36.936079  8864 net.cpp:397] relu5_1 -> conv5_1 (in-place)
I0903 00:36:36.936087  8864 net.cpp:150] Setting up relu5_1
I0903 00:36:36.936091  8864 net.cpp:157] Top shape: 1 512 14 14 (100352)
I0903 00:36:36.936094  8864 net.cpp:165] Memory required for data: 112795648
I0903 00:36:36.936096  8864 layer_factory.hpp:77] Creating layer conv5_2
I0903 00:36:36.936100  8864 net.cpp:106] Creating Layer conv5_2
I0903 00:36:36.936103  8864 net.cpp:454] conv5_2 <- conv5_1
I0903 00:36:36.936107  8864 net.cpp:411] conv5_2 -> conv5_2
I0903 00:36:36.939368  8864 net.cpp:150] Setting up conv5_2
I0903 00:36:36.939393  8864 net.cpp:157] Top shape: 1 512 14 14 (100352)
I0903 00:36:36.939396  8864 net.cpp:165] Memory required for data: 113197056
I0903 00:36:36.939402  8864 layer_factory.hpp:77] Creating layer relu5_2
I0903 00:36:36.939409  8864 net.cpp:106] Creating Layer relu5_2
I0903 00:36:36.939414  8864 net.cpp:454] relu5_2 <- conv5_2
I0903 00:36:36.939419  8864 net.cpp:397] relu5_2 -> conv5_2 (in-place)
I0903 00:36:36.939431  8864 net.cpp:150] Setting up relu5_2
I0903 00:36:36.939435  8864 net.cpp:157] Top shape: 1 512 14 14 (100352)
I0903 00:36:36.939437  8864 net.cpp:165] Memory required for data: 113598464
I0903 00:36:36.939440  8864 layer_factory.hpp:77] Creating layer conv5_3
I0903 00:36:36.939447  8864 net.cpp:106] Creating Layer conv5_3
I0903 00:36:36.939450  8864 net.cpp:454] conv5_3 <- conv5_2
I0903 00:36:36.939453  8864 net.cpp:411] conv5_3 -> conv5_3
I0903 00:36:36.942736  8864 net.cpp:150] Setting up conv5_3
I0903 00:36:36.942764  8864 net.cpp:157] Top shape: 1 512 14 14 (100352)
I0903 00:36:36.942767  8864 net.cpp:165] Memory required for data: 113999872
I0903 00:36:36.942773  8864 layer_factory.hpp:77] Creating layer relu5_3
I0903 00:36:36.942780  8864 net.cpp:106] Creating Layer relu5_3
I0903 00:36:36.942783  8864 net.cpp:454] relu5_3 <- conv5_3
I0903 00:36:36.942788  8864 net.cpp:397] relu5_3 -> conv5_3 (in-place)
I0903 00:36:36.942795  8864 net.cpp:150] Setting up relu5_3
I0903 00:36:36.942800  8864 net.cpp:157] Top shape: 1 512 14 14 (100352)
I0903 00:36:36.942801  8864 net.cpp:165] Memory required for data: 114401280
I0903 00:36:36.942804  8864 layer_factory.hpp:77] Creating layer rpn_conv/3x3
I0903 00:36:36.942811  8864 net.cpp:106] Creating Layer rpn_conv/3x3
I0903 00:36:36.942812  8864 net.cpp:454] rpn_conv/3x3 <- conv5_3
I0903 00:36:36.942816  8864 net.cpp:411] rpn_conv/3x3 -> rpn/output
I0903 00:36:36.946061  8864 net.cpp:150] Setting up rpn_conv/3x3
I0903 00:36:36.946089  8864 net.cpp:157] Top shape: 1 512 14 14 (100352)
I0903 00:36:36.946091  8864 net.cpp:165] Memory required for data: 114802688
I0903 00:36:36.946097  8864 layer_factory.hpp:77] Creating layer rpn_relu/3x3
I0903 00:36:36.946104  8864 net.cpp:106] Creating Layer rpn_relu/3x3
I0903 00:36:36.946107  8864 net.cpp:454] rpn_relu/3x3 <- rpn/output
I0903 00:36:36.946112  8864 net.cpp:397] rpn_relu/3x3 -> rpn/output (in-place)
I0903 00:36:36.946118  8864 net.cpp:150] Setting up rpn_relu/3x3
I0903 00:36:36.946121  8864 net.cpp:157] Top shape: 1 512 14 14 (100352)
I0903 00:36:36.946125  8864 net.cpp:165] Memory required for data: 115204096
I0903 00:36:36.946126  8864 layer_factory.hpp:77] Creating layer rpn/output_rpn_relu/3x3_0_split
I0903 00:36:36.946133  8864 net.cpp:106] Creating Layer rpn/output_rpn_relu/3x3_0_split
I0903 00:36:36.946136  8864 net.cpp:454] rpn/output_rpn_relu/3x3_0_split <- rpn/output
I0903 00:36:36.946141  8864 net.cpp:411] rpn/output_rpn_relu/3x3_0_split -> rpn/output_rpn_relu/3x3_0_split_0
I0903 00:36:36.946146  8864 net.cpp:411] rpn/output_rpn_relu/3x3_0_split -> rpn/output_rpn_relu/3x3_0_split_1
I0903 00:36:36.946168  8864 net.cpp:150] Setting up rpn/output_rpn_relu/3x3_0_split
I0903 00:36:36.946174  8864 net.cpp:157] Top shape: 1 512 14 14 (100352)
I0903 00:36:36.946178  8864 net.cpp:157] Top shape: 1 512 14 14 (100352)
I0903 00:36:36.946180  8864 net.cpp:165] Memory required for data: 116006912
I0903 00:36:36.946182  8864 layer_factory.hpp:77] Creating layer rpn_cls_score
I0903 00:36:36.946187  8864 net.cpp:106] Creating Layer rpn_cls_score
I0903 00:36:36.946190  8864 net.cpp:454] rpn_cls_score <- rpn/output_rpn_relu/3x3_0_split_0
I0903 00:36:36.946194  8864 net.cpp:411] rpn_cls_score -> rpn_cls_score
I0903 00:36:36.946336  8864 net.cpp:150] Setting up rpn_cls_score
I0903 00:36:36.946341  8864 net.cpp:157] Top shape: 1 18 14 14 (3528)
I0903 00:36:36.946343  8864 net.cpp:165] Memory required for data: 116021024
I0903 00:36:36.946347  8864 layer_factory.hpp:77] Creating layer rpn_bbox_pred
I0903 00:36:36.946352  8864 net.cpp:106] Creating Layer rpn_bbox_pred
I0903 00:36:36.946354  8864 net.cpp:454] rpn_bbox_pred <- rpn/output_rpn_relu/3x3_0_split_1
I0903 00:36:36.946358  8864 net.cpp:411] rpn_bbox_pred -> rpn_bbox_pred
I0903 00:36:36.946538  8864 net.cpp:150] Setting up rpn_bbox_pred
I0903 00:36:36.946544  8864 net.cpp:157] Top shape: 1 36 14 14 (7056)
I0903 00:36:36.946547  8864 net.cpp:165] Memory required for data: 116049248
I0903 00:36:36.946550  8864 layer_factory.hpp:77] Creating layer rpn_cls_score_reshape
I0903 00:36:36.946566  8864 net.cpp:106] Creating Layer rpn_cls_score_reshape
I0903 00:36:36.946569  8864 net.cpp:454] rpn_cls_score_reshape <- rpn_cls_score
I0903 00:36:36.946574  8864 net.cpp:411] rpn_cls_score_reshape -> rpn_cls_score_reshape
I0903 00:36:36.946590  8864 net.cpp:150] Setting up rpn_cls_score_reshape
I0903 00:36:36.946595  8864 net.cpp:157] Top shape: 1 2 126 14 (3528)
I0903 00:36:36.946599  8864 net.cpp:165] Memory required for data: 116063360
I0903 00:36:36.946600  8864 layer_factory.hpp:77] Creating layer rpn_cls_prob
I0903 00:36:36.946604  8864 net.cpp:106] Creating Layer rpn_cls_prob
I0903 00:36:36.946607  8864 net.cpp:454] rpn_cls_prob <- rpn_cls_score_reshape
I0903 00:36:36.946610  8864 net.cpp:411] rpn_cls_prob -> rpn_cls_prob
I0903 00:36:36.946645  8864 net.cpp:150] Setting up rpn_cls_prob
I0903 00:36:36.946650  8864 net.cpp:157] Top shape: 1 2 126 14 (3528)
I0903 00:36:36.946652  8864 net.cpp:165] Memory required for data: 116077472
I0903 00:36:36.946655  8864 layer_factory.hpp:77] Creating layer rpn_cls_prob_reshape
I0903 00:36:36.946658  8864 net.cpp:106] Creating Layer rpn_cls_prob_reshape
I0903 00:36:36.946661  8864 net.cpp:454] rpn_cls_prob_reshape <- rpn_cls_prob
I0903 00:36:36.946666  8864 net.cpp:411] rpn_cls_prob_reshape -> rpn_cls_prob_reshape
I0903 00:36:36.946677  8864 net.cpp:150] Setting up rpn_cls_prob_reshape
I0903 00:36:36.946682  8864 net.cpp:157] Top shape: 1 18 14 14 (3528)
I0903 00:36:36.946684  8864 net.cpp:165] Memory required for data: 116091584
I0903 00:36:36.946687  8864 layer_factory.hpp:77] Creating layer proposal
I0903 00:36:36.948668  8864 net.cpp:106] Creating Layer proposal
I0903 00:36:36.948676  8864 net.cpp:454] proposal <- rpn_cls_prob_reshape
I0903 00:36:36.948681  8864 net.cpp:454] proposal <- rpn_bbox_pred
I0903 00:36:36.948684  8864 net.cpp:454] proposal <- im_info
I0903 00:36:36.948689  8864 net.cpp:411] proposal -> rois
I0903 00:36:36.948694  8864 net.cpp:411] proposal -> scores
I0903 00:36:36.949481  8864 net.cpp:150] Setting up proposal
I0903 00:36:36.949504  8864 net.cpp:157] Top shape: 1 5 (5)
I0903 00:36:36.949508  8864 net.cpp:157] Top shape: 1 1 1 1 (1)
I0903 00:36:36.949512  8864 net.cpp:165] Memory required for data: 116091608
I0903 00:36:36.949514  8864 net.cpp:228] proposal does not need backward computation.
I0903 00:36:36.949517  8864 net.cpp:228] rpn_cls_prob_reshape does not need backward computation.
I0903 00:36:36.949520  8864 net.cpp:228] rpn_cls_prob does not need backward computation.
I0903 00:36:36.949523  8864 net.cpp:228] rpn_cls_score_reshape does not need backward computation.
…
I0903 00:38:01.124817  8873 solver.cpp:81] Creating training net from train_net file: models/imagenet/VGG16/faster_rcnn_alt_opt/stage1_fast_rcnn_train.pt
I0903 00:38:01.136651  8873 net.cpp:49] Initializing net from parameters: 
name: "VGG_ILSVRC_16_layers"
state {
  phase: TRAIN
}
layer {
  name: "data"
  type: "Python"
  top: "data"
  top: "rois"
  top: "labels"
  top: "bbox_targets"
  top: "bbox_inside_weights"
  top: "bbox_outside_weights"
  python_param {
    module: "roi_data_layer.layer"
    layer: "RoIDataLayer"
    param_str: "\'num_classes\': 2"
  }
}
layer {
  name: "conv1_1"
  type: "Convolution"
  bottom: "data"
  top: "conv1_1"
  param {
    lr_mult: 0
    decay_mult: 0
  }
  param {
    lr_mult: 0
    decay_mult: 0
  }
  convolution_param {
    num_output: 64
    pad: 1
    kernel_size: 3
  }
}
layer {
  name: "relu1_1"
  type: "ReLU"
  bottom: "conv1_1"
  top: "conv1_1"
}
layer {
  name: "conv1_2"
  type: "Convolution"
  bottom: "conv1_1"
  top: "conv1_2"
  param {
    lr_mult: 0
    decay_mult: 0
  }
  param {
    lr_mult: 0
    decay_mult: 0
  }
  convolution_param {
    num_output: 64
    pad: 1
    kernel_size: 3
  }
}
layer {
  name: "relu1_2"
  type: "ReLU"
  bottom: "conv1_2"
  top: "conv1_2"
}
layer {
  name: "pool1"
  type: "Pooling"
  bottom: "conv1_2"
  top: "pool1"
  pooling_param {
    pool: MAX
    kernel_size: 2
    stride: 2
  }
}
layer {
  name: "conv2_1"
  type: "Convolution"
  bottom: "pool1"
  top: "conv2_1"
  param {
    lr_mult: 0
    decay_mult: 0
  }
  param {
    lr_mult: 0
    decay_mult: 0
  }
  convolution_param {
    num_output: 128
    pad: 1
    kernel_size: 3
  }
}
layer {
  name: "relu2_1"
  type: "ReLU"
  bottom: "conv2_1"
  top: "conv2_1"
}
layer {
  name: "conv2_2"
  type: "Convolution"
  bottom: "conv2_1"
  top: "conv2_2"
  param {
    lr_mult: 0
    decay_mult: 0
  }
  param {
    lr_mult: 0
    decay_mult: 0
  }
  convolution_param {
    num_output: 128
    pad: 1
    kernel_size: 3
  }
}
layer {
  name: "relu2_2"
  type: "ReLU"
  bottom: "conv2_2"
  top: "conv2_2"
}
layer {
  name: "pool2"
  type: "Pooling"
  bottom: "conv2_2"
  top: "pool2"
  pooling_param {
    pool: MAX
    kernel_size: 2
    stride: 2
  }
}
layer {
  name: "conv3_1"
  type: "Convolution"
  bottom: "pool2"
  top: "conv3_1"
  param {
    lr_mult: 1
  }
  param {
    lr_mult: 2
  }
  convolution_param {
    num_output: 256
    pad: 1
    kernel_size: 3
  }
}
layer {
  name: "relu3_1"
  type: "ReLU"
  bottom: "conv3_1"
  top: "conv3_1"
}
layer {
  name: "conv3_2"
  type: "Convolution"
  bottom: "conv3_1"
  top: "conv3_2"
  param {
    lr_mult: 1
  }
  param {
    lr_mult: 2
  }
  convolution_param {
    num_output: 256
    pad: 1
    kernel_size: 3
  }
}
layer {
  name: "relu3_2"
  type: "ReLU"
  bottom: "conv3_2"
  top: "conv3_2"
}
layer {
  name: "conv3_3"
  type: "Convolution"
  bottom: "conv3_2"
  top: "conv3_3"
  param {
    lr_mult: 1
  }
  param {
    lr_mult: 2
  }
  convolution_param {
    num_output: 256
    pad: 1
    kernel_size: 3
  }
}
layer {
  name: "relu3_3"
  type: "ReLU"
  bottom: "conv3_3"
  top: "conv3_3"
}
layer {
  name: "pool3"
  type: "Pooling"
  bottom: "conv3_3"
  top: "pool3"
  pooling_param {
    pool: MAX
    kernel_size: 2
    stride: 2
  }
}
layer {
  name: "conv4_1"
  type: "Convolution"
  bottom: "pool3"
  top: "conv4_1"
  param {
    lr_mult: 1
  }
  param {
    lr_mult: 2
  }
  convolution_param {
    num_output: 512
    pad: 1
    kernel_size: 3
  }
}
layer {
  name: "relu4_1"
  type: "ReLU"
  bottom: "conv4_1"
  top: "conv4_1"
}
layer {
  name: "conv4_2"
  type: "Convolution"
  bottom: "conv4_1"
  top: "conv4_2"
  param {
    lr_mult: 1
  }
  param {
    lr_mult: 2
  }
  convolution_param {
    num_output: 512
    pad: 1
    kernel_size: 3
  }
}
layer {
  name: "relu4_2"
  type: "ReLU"
  bottom: "conv4_2"
  top: "conv4_2"
}
layer {
  name: "conv4_3"
  type: "Convolution"
  bottom: "conv4_2"
  top: "conv4_3"
  param {
    lr_mult: 1
  }
  param {
    lr_mult: 2
  }
  convolution_param {
    num_output: 512
    pad: 1
    kernel_size: 3
  }
}
layer {
  name: "relu4_3"
  type: "ReLU"
  bottom: "conv4_3"
  top: "conv4_3"
}
layer {
  name: "pool4"
  type: "Pooling"
  bottom: "conv4_3"
  top: "pool4"
  pooling_param {
    pool: MAX
    kernel_size: 2
    stride: 2
  }
}
layer {
  name: "conv5_1"
  type: "Convolution"
  bottom: "pool4"
  top: "conv5_1"
  param {
    lr_mult: 1
  }
  param {
    lr_mult: 2
  }
  convolution_param {
    num_output: 512
    pad: 1
    kernel_size: 3
  }
}
layer {
  name: "relu5_1"
  type: "ReLU"
  bottom: "conv5_1"
  top: "conv5_1"
}
layer {
  name: "conv5_2"
  type: "Convolution"
  bottom: "conv5_1"
  top: "conv5_2"
  param {
    lr_mult: 1
  }
  param {
    lr_mult: 2
  }
  convolution_param {
    num_output: 512
    pad: 1
    kernel_size: 3
  }
}
layer {
  name: "relu5_2"
  type: "ReLU"
  bottom: "conv5_2"
  top: "conv5_2"
}
layer {
  name: "conv5_3"
  type: "Convolution"
  bottom: "conv5_2"
  top: "conv5_3"
  param {
    lr_mult: 1
  }
  param {
    lr_mult: 2
  }
  convolution_param {
    num_output: 512
    pad: 1
    kernel_size: 3
  }
}
layer {
  name: "relu5_3"
  type: "ReLU"
  bottom: "conv5_3"
  top: "conv5_3"
}
layer {
  name: "roi_pool5"
  type: "ROIPooling"
  bottom: "conv5_3"
  bottom: "rois"
  top: "pool5"
  roi_pooling_param {
    pooled_h: 7
    pooled_w: 7
    spatial_scale: 0.0625
  }
}
layer {
  name: "fc6"
  type: "InnerProduct"
  bottom: "pool5"
  top: "fc6"
  param {
    lr_mult: 1
  }
  param {
    lr_mult: 2
  }
  inner_product_param {
    num_output: 4096
  }
}
layer {
  name: "relu6"
  type: "ReLU"
  bottom: "fc6"
  top: "fc6"
}
layer {
  name: "drop6"
  type: "Dropout"
  bottom: "fc6"
  top: "fc6"
  dropout_param {
    dropout_ratio: 0.5
  }
}
layer {
  name: "fc7"
  type: "InnerProduct"
  bottom: "fc6"
  top: "fc7"
  param {
    lr_mult: 1
  }
  param {
    lr_mult: 2
  }
  inner_product_param {
    num_output: 4096
  }
}
layer {
  name: "relu7"
  type: "ReLU"
  bottom: "fc7"
  top: "fc7"
}
layer {
  name: "drop7"
  type: "Dropout"
  bottom: "fc7"
  top: "fc7"
  dropout_param {
    dropout_ratio: 0.5
  }
}
layer {
  name: "cls_score"
  type: "InnerProduct"
  bottom: "fc7"
  top: "cls_score"
  param {
    lr_mult: 1
  }
  param {
    lr_mult: 2
  }
  inner_product_param {
    num_output: 21
    weight_filler {
      type: "gaussian"
      std: 0.01
    }
    bias_filler {
      type: "constant"
      value: 0
    }
  }
}
layer {
  name: "bbox_pred"
  type: "InnerProduct"
  bottom: "fc7"
  top: "bbox_pred"
  param {
    lr_mult: 1
  }
  param {
    lr_mult: 2
  }
  inner_product_param {
    num_output: 8
    weight_filler {
      type: "gaussian"
      std: 0.001
    }
    bias_filler {
      type: "constant"
      value: 0
    }
  }
}
layer {
  name: "loss_cls"
  type: "SoftmaxWithLoss"
  bottom: "cls_score"
  bottom: "labels"
  top: "loss_cls"
  loss_weight: 1
}
layer {
  name: "loss_bbox"
  type: "SmoothL1Loss"
  bottom: "bbox_pred"
  bottom: "bbox_targets"
  bottom: "bbox_inside_weights"
  bottom: "bbox_outside_weights"
  top: "loss_bbox"
  loss_weight: 1
}
layer {
  name: "rpn_conv/3x3"
  type: "Convolution"
  bottom: "conv5_3"
  top: "rpn/output"
  param {
    lr_mult: 0
    decay_mult: 0
  }
  param {
    lr_mult: 0
    decay_mult: 0
  }
  convolution_param {
    num_output: 512
    pad: 1
    kernel_size: 3
    stride: 1
    weight_filler {
      type: "gaussian"
      std: 0.01
    }
    bias_filler {
      type: "constant"
      value: 0
    }
  }
}
layer {
  name: "rpn_relu/3x3"
  type: "ReLU"
  bottom: "rpn/output"
  top: "rpn/output"
}
layer {
  name: "rpn_cls_score"
  type: "Convolution"
  bottom: "rpn/output"
  top: "rpn_cls_score"
  param {
    lr_mult: 0
    decay_mult: 0
  }
  param {
    lr_mult: 0
    decay_mult: 0
  }
  convolution_param {
    num_output: 18
    pad: 0
    kernel_size: 1
    stride: 1
    weight_filler {
      type: "gaussian"
      std: 0.01
    }
    bias_filler {
      type: "constant"
      value: 0
    }
  }
}
layer {
  name: "rpn_bbox_pred"
  type: "Convolution"
  bottom: "rpn/output"
  top: "rpn_bbox_pred"
  param {
    lr_mult: 0
    decay_mult: 0
  }
  param {
    lr_mult: 0
    decay_mult: 0
  }
  convolution_param {
    num_output: 36
    pad: 0
    kernel_size: 1
    stride: 1
    weight_filler {
      type: "gaussian"
      std: 0.01
    }
    bias_filler {
      type: "constant"
      value: 0
    }
  }
}
layer {
  name: "silence_rpn_cls_score"
  type: "Silence"
  bottom: "rpn_cls_score"
}
layer {
  name: "silence_rpn_bbox_pred"
  type: "Silence"
  bottom: "rpn_bbox_pred"
}
I0903 00:38:01.136766  8873 layer_factory.hpp:77] Creating layer data
I0903 00:38:01.137068  8873 net.cpp:106] Creating Layer data
I0903 00:38:01.137075  8873 net.cpp:411] data -> data
I0903 00:38:01.137082  8873 net.cpp:411] data -> rois
I0903 00:38:01.137087  8873 net.cpp:411] data -> labels
I0903 00:38:01.137091  8873 net.cpp:411] data -> bbox_targets
I0903 00:38:01.137095  8873 net.cpp:411] data -> bbox_inside_weights
I0903 00:38:01.137100  8873 net.cpp:411] data -> bbox_outside_weights
I0903 00:38:01.365761  8873 net.cpp:150] Setting up data
I0903 00:38:01.365788  8873 net.cpp:157] Top shape: 2 3 300 1000 (1800000)
I0903 00:38:01.365792  8873 net.cpp:157] Top shape: 1 5 (5)
I0903 00:38:01.365795  8873 net.cpp:157] Top shape: 1 (1)
I0903 00:38:01.365798  8873 net.cpp:157] Top shape: 1 8 (8)
I0903 00:38:01.365802  8873 net.cpp:157] Top shape: 1 8 (8)
I0903 00:38:01.365804  8873 net.cpp:157] Top shape: 1 8 (8)
I0903 00:38:01.365808  8873 net.cpp:165] Memory required for data: 7200120
I0903 00:38:01.365811  8873 layer_factory.hpp:77] Creating layer conv1_1
I0903 00:38:01.365824  8873 net.cpp:106] Creating Layer conv1_1
I0903 00:38:01.365828  8873 net.cpp:454] conv1_1 <- data
I0903 00:38:01.365833  8873 net.cpp:411] conv1_1 -> conv1_1
I0903 00:38:01.367058  8873 net.cpp:150] Setting up conv1_1
I0903 00:38:01.367069  8873 net.cpp:157] Top shape: 2 64 300 1000 (38400000)
I0903 00:38:01.367071  8873 net.cpp:165] Memory required for data: 160800120
I0903 00:38:01.367079  8873 layer_factory.hpp:77] Creating layer relu1_1
I0903 00:38:01.367085  8873 net.cpp:106] Creating Layer relu1_1
I0903 00:38:01.367089  8873 net.cpp:454] relu1_1 <- conv1_1
I0903 00:38:01.367092  8873 net.cpp:397] relu1_1 -> conv1_1 (in-place)
I0903 00:38:01.367097  8873 net.cpp:150] Setting up relu1_1
I0903 00:38:01.367100  8873 net.cpp:157] Top shape: 2 64 300 1000 (38400000)
I0903 00:38:01.367103  8873 net.cpp:165] Memory required for data: 314400120
I0903 00:38:01.367105  8873 layer_factory.hpp:77] Creating layer conv1_2
I0903 00:38:01.367111  8873 net.cpp:106] Creating Layer conv1_2
I0903 00:38:01.367115  8873 net.cpp:454] conv1_2 <- conv1_1
I0903 00:38:01.367118  8873 net.cpp:411] conv1_2 -> conv1_2
I0903 00:38:01.368276  8873 net.cpp:150] Setting up conv1_2
I0903 00:38:01.368286  8873 net.cpp:157] Top shape: 2 64 300 1000 (38400000)
I0903 00:38:01.368289  8873 net.cpp:165] Memory required for data: 468000120
I0903 00:38:01.368295  8873 layer_factory.hpp:77] Creating layer relu1_2
I0903 00:38:01.368309  8873 net.cpp:106] Creating Layer relu1_2
I0903 00:38:01.368311  8873 net.cpp:454] relu1_2 <- conv1_2
I0903 00:38:01.368316  8873 net.cpp:397] relu1_2 -> conv1_2 (in-place)
I0903 00:38:01.368321  8873 net.cpp:150] Setting up relu1_2
I0903 00:38:01.368325  8873 net.cpp:157] Top shape: 2 64 300 1000 (38400000)
I0903 00:38:01.368327  8873 net.cpp:165] Memory required for data: 621600120
I0903 00:38:01.368330  8873 layer_factory.hpp:77] Creating layer pool1
I0903 00:38:01.368335  8873 net.cpp:106] Creating Layer pool1
I0903 00:38:01.368336  8873 net.cpp:454] pool1 <- conv1_2
I0903 00:38:01.368340  8873 net.cpp:411] pool1 -> pool1
I0903 00:38:01.368372  8873 net.cpp:150] Setting up pool1
I0903 00:38:01.368377  8873 net.cpp:157] Top shape: 2 64 150 500 (9600000)
I0903 00:38:01.368381  8873 net.cpp:165] Memory required for data: 660000120
I0903 00:38:01.368382  8873 layer_factory.hpp:77] Creating layer conv2_1
I0903 00:38:01.368388  8873 net.cpp:106] Creating Layer conv2_1
I0903 00:38:01.368391  8873 net.cpp:454] conv2_1 <- pool1
I0903 00:38:01.368396  8873 net.cpp:411] conv2_1 -> conv2_1
I0903 00:38:01.368609  8873 net.cpp:150] Setting up conv2_1
I0903 00:38:01.368614  8873 net.cpp:157] Top shape: 2 128 150 500 (19200000)
I0903 00:38:01.368618  8873 net.cpp:165] Memory required for data: 736800120
I0903 00:38:01.368623  8873 layer_factory.hpp:77] Creating layer relu2_1
I0903 00:38:01.368628  8873 net.cpp:106] Creating Layer relu2_1
I0903 00:38:01.368630  8873 net.cpp:454] relu2_1 <- conv2_1
I0903 00:38:01.368633  8873 net.cpp:397] relu2_1 -> conv2_1 (in-place)
I0903 00:38:01.368638  8873 net.cpp:150] Setting up relu2_1
I0903 00:38:01.368641  8873 net.cpp:157] Top shape: 2 128 150 500 (19200000)
I0903 00:38:01.368643  8873 net.cpp:165] Memory required for data: 813600120
I0903 00:38:01.368645  8873 layer_factory.hpp:77] Creating layer conv2_2
I0903 00:38:01.368651  8873 net.cpp:106] Creating Layer conv2_2
I0903 00:38:01.368654  8873 net.cpp:454] conv2_2 <- conv2_1
I0903 00:38:01.368657  8873 net.cpp:411] conv2_2 -> conv2_2
I0903 00:38:01.368892  8873 net.cpp:150] Setting up conv2_2
I0903 00:38:01.368898  8873 net.cpp:157] Top shape: 2 128 150 500 (19200000)
I0903 00:38:01.368901  8873 net.cpp:165] Memory required for data: 890400120
I0903 00:38:01.368906  8873 layer_factory.hpp:77] Creating layer relu2_2
I0903 00:38:01.368909  8873 net.cpp:106] Creating Layer relu2_2
I0903 00:38:01.368912  8873 net.cpp:454] relu2_2 <- conv2_2
I0903 00:38:01.368916  8873 net.cpp:397] relu2_2 -> conv2_2 (in-place)
I0903 00:38:01.368919  8873 net.cpp:150] Setting up relu2_2
I0903 00:38:01.368922  8873 net.cpp:157] Top shape: 2 128 150 500 (19200000)
I0903 00:38:01.368926  8873 net.cpp:165] Memory required for data: 967200120
I0903 00:38:01.368927  8873 layer_factory.hpp:77] Creating layer pool2
I0903 00:38:01.368932  8873 net.cpp:106] Creating Layer pool2
I0903 00:38:01.368934  8873 net.cpp:454] pool2 <- conv2_2
I0903 00:38:01.368937  8873 net.cpp:411] pool2 -> pool2
I0903 00:38:01.368958  8873 net.cpp:150] Setting up pool2
I0903 00:38:01.368963  8873 net.cpp:157] Top shape: 2 128 75 250 (4800000)
I0903 00:38:01.368965  8873 net.cpp:165] Memory required for data: 986400120
I0903 00:38:01.368968  8873 layer_factory.hpp:77] Creating layer conv3_1
I0903 00:38:01.368973  8873 net.cpp:106] Creating Layer conv3_1
I0903 00:38:01.368975  8873 net.cpp:454] conv3_1 <- pool2
I0903 00:38:01.368979  8873 net.cpp:411] conv3_1 -> conv3_1
I0903 00:38:01.369755  8873 net.cpp:150] Setting up conv3_1
I0903 00:38:01.369765  8873 net.cpp:157] Top shape: 2 256 75 250 (9600000)
I0903 00:38:01.369768  8873 net.cpp:165] Memory required for data: 1024800120
I0903 00:38:01.369774  8873 layer_factory.hpp:77] Creating layer relu3_1
I0903 00:38:01.369779  8873 net.cpp:106] Creating Layer relu3_1
I0903 00:38:01.369782  8873 net.cpp:454] relu3_1 <- conv3_1
I0903 00:38:01.369786  8873 net.cpp:397] relu3_1 -> conv3_1 (in-place)
I0903 00:38:01.369791  8873 net.cpp:150] Setting up relu3_1
I0903 00:38:01.369793  8873 net.cpp:157] Top shape: 2 256 75 250 (9600000)
I0903 00:38:01.369799  8873 net.cpp:165] Memory required for data: 1063200120
I0903 00:38:01.369801  8873 layer_factory.hpp:77] Creating layer conv3_2
I0903 00:38:01.369807  8873 net.cpp:106] Creating Layer conv3_2
I0903 00:38:01.369810  8873 net.cpp:454] conv3_2 <- conv3_1
I0903 00:38:01.369814  8873 net.cpp:411] conv3_2 -> conv3_2
I0903 00:38:01.370707  8873 net.cpp:150] Setting up conv3_2
I0903 00:38:01.370717  8873 net.cpp:157] Top shape: 2 256 75 250 (9600000)
I0903 00:38:01.370718  8873 net.cpp:165] Memory required for data: 1101600120
I0903 00:38:01.370723  8873 layer_factory.hpp:77] Creating layer relu3_2
I0903 00:38:01.370728  8873 net.cpp:106] Creating Layer relu3_2
I0903 00:38:01.370730  8873 net.cpp:454] relu3_2 <- conv3_2
I0903 00:38:01.370734  8873 net.cpp:397] relu3_2 -> conv3_2 (in-place)
I0903 00:38:01.370738  8873 net.cpp:150] Setting up relu3_2
I0903 00:38:01.370741  8873 net.cpp:157] Top shape: 2 256 75 250 (9600000)
I0903 00:38:01.370744  8873 net.cpp:165] Memory required for data: 1140000120
I0903 00:38:01.370746  8873 layer_factory.hpp:77] Creating layer conv3_3
I0903 00:38:01.370751  8873 net.cpp:106] Creating Layer conv3_3
I0903 00:38:01.370754  8873 net.cpp:454] conv3_3 <- conv3_2
I0903 00:38:01.370759  8873 net.cpp:411] conv3_3 -> conv3_3
I0903 00:38:01.371646  8873 net.cpp:150] Setting up conv3_3
I0903 00:38:01.371654  8873 net.cpp:157] Top shape: 2 256 75 250 (9600000)
I0903 00:38:01.371657  8873 net.cpp:165] Memory required for data: 1178400120
I0903 00:38:01.371662  8873 layer_factory.hpp:77] Creating layer relu3_3
I0903 00:38:01.371668  8873 net.cpp:106] Creating Layer relu3_3
I0903 00:38:01.371671  8873 net.cpp:454] relu3_3 <- conv3_3
I0903 00:38:01.371675  8873 net.cpp:397] relu3_3 -> conv3_3 (in-place)
I0903 00:38:01.371680  8873 net.cpp:150] Setting up relu3_3
I0903 00:38:01.371682  8873 net.cpp:157] Top shape: 2 256 75 250 (9600000)
I0903 00:38:01.371685  8873 net.cpp:165] Memory required for data: 1216800120
I0903 00:38:01.371687  8873 layer_factory.hpp:77] Creating layer pool3
I0903 00:38:01.371692  8873 net.cpp:106] Creating Layer pool3
I0903 00:38:01.371695  8873 net.cpp:454] pool3 <- conv3_3
I0903 00:38:01.371700  8873 net.cpp:411] pool3 -> pool3
I0903 00:38:01.371721  8873 net.cpp:150] Setting up pool3
I0903 00:38:01.371726  8873 net.cpp:157] Top shape: 2 256 38 125 (2432000)
I0903 00:38:01.371727  8873 net.cpp:165] Memory required for data: 1226528120
I0903 00:38:01.371731  8873 layer_factory.hpp:77] Creating layer conv4_1
I0903 00:38:01.371736  8873 net.cpp:106] Creating Layer conv4_1
I0903 00:38:01.371738  8873 net.cpp:454] conv4_1 <- pool3
I0903 00:38:01.371742  8873 net.cpp:411] conv4_1 -> conv4_1
I0903 00:38:01.374274  8873 net.cpp:150] Setting up conv4_1
I0903 00:38:01.374295  8873 net.cpp:157] Top shape: 2 512 38 125 (4864000)
I0903 00:38:01.374299  8873 net.cpp:165] Memory required for data: 1245984120
I0903 00:38:01.374305  8873 layer_factory.hpp:77] Creating layer relu4_1
I0903 00:38:01.374312  8873 net.cpp:106] Creating Layer relu4_1
I0903 00:38:01.374316  8873 net.cpp:454] relu4_1 <- conv4_1
I0903 00:38:01.374320  8873 net.cpp:397] relu4_1 -> conv4_1 (in-place)
I0903 00:38:01.374326  8873 net.cpp:150] Setting up relu4_1
I0903 00:38:01.374330  8873 net.cpp:157] Top shape: 2 512 38 125 (4864000)
I0903 00:38:01.374332  8873 net.cpp:165] Memory required for data: 1265440120
I0903 00:38:01.374336  8873 layer_factory.hpp:77] Creating layer conv4_2
I0903 00:38:01.374341  8873 net.cpp:106] Creating Layer conv4_2
I0903 00:38:01.374344  8873 net.cpp:454] conv4_2 <- conv4_1
I0903 00:38:01.374348  8873 net.cpp:411] conv4_2 -> conv4_2
I0903 00:38:01.377564  8873 net.cpp:150] Setting up conv4_2
I0903 00:38:01.377593  8873 net.cpp:157] Top shape: 2 512 38 125 (4864000)
I0903 00:38:01.377596  8873 net.cpp:165] Memory required for data: 1284896120
I0903 00:38:01.377606  8873 layer_factory.hpp:77] Creating layer relu4_2
I0903 00:38:01.377614  8873 net.cpp:106] Creating Layer relu4_2
I0903 00:38:01.377616  8873 net.cpp:454] relu4_2 <- conv4_2
I0903 00:38:01.377629  8873 net.cpp:397] relu4_2 -> conv4_2 (in-place)
I0903 00:38:01.377636  8873 net.cpp:150] Setting up relu4_2
I0903 00:38:01.377640  8873 net.cpp:157] Top shape: 2 512 38 125 (4864000)
I0903 00:38:01.377642  8873 net.cpp:165] Memory required for data: 1304352120
I0903 00:38:01.377645  8873 layer_factory.hpp:77] Creating layer conv4_3
I0903 00:38:01.377650  8873 net.cpp:106] Creating Layer conv4_3
I0903 00:38:01.377653  8873 net.cpp:454] conv4_3 <- conv4_2
I0903 00:38:01.377658  8873 net.cpp:411] conv4_3 -> conv4_3
I0903 00:38:01.380818  8873 net.cpp:150] Setting up conv4_3
I0903 00:38:01.380843  8873 net.cpp:157] Top shape: 2 512 38 125 (4864000)
I0903 00:38:01.380846  8873 net.cpp:165] Memory required for data: 1323808120
I0903 00:38:01.380852  8873 layer_factory.hpp:77] Creating layer relu4_3
I0903 00:38:01.380859  8873 net.cpp:106] Creating Layer relu4_3
I0903 00:38:01.380863  8873 net.cpp:454] relu4_3 <- conv4_3
I0903 00:38:01.380867  8873 net.cpp:397] relu4_3 -> conv4_3 (in-place)
I0903 00:38:01.380873  8873 net.cpp:150] Setting up relu4_3
I0903 00:38:01.380877  8873 net.cpp:157] Top shape: 2 512 38 125 (4864000)
I0903 00:38:01.380879  8873 net.cpp:165] Memory required for data: 1343264120
I0903 00:38:01.380882  8873 layer_factory.hpp:77] Creating layer pool4
I0903 00:38:01.380887  8873 net.cpp:106] Creating Layer pool4
I0903 00:38:01.380890  8873 net.cpp:454] pool4 <- conv4_3
I0903 00:38:01.380894  8873 net.cpp:411] pool4 -> pool4
I0903 00:38:01.380918  8873 net.cpp:150] Setting up pool4
I0903 00:38:01.380923  8873 net.cpp:157] Top shape: 2 512 19 63 (1225728)
I0903 00:38:01.380925  8873 net.cpp:165] Memory required for data: 1348167032
I0903 00:38:01.380928  8873 layer_factory.hpp:77] Creating layer conv5_1
I0903 00:38:01.380934  8873 net.cpp:106] Creating Layer conv5_1
I0903 00:38:01.380937  8873 net.cpp:454] conv5_1 <- pool4
I0903 00:38:01.380941  8873 net.cpp:411] conv5_1 -> conv5_1
I0903 00:38:01.384284  8873 net.cpp:150] Setting up conv5_1
I0903 00:38:01.384312  8873 net.cpp:157] Top shape: 2 512 19 63 (1225728)
I0903 00:38:01.384315  8873 net.cpp:165] Memory required for data: 1353069944
I0903 00:38:01.384322  8873 layer_factory.hpp:77] Creating layer relu5_1
I0903 00:38:01.384330  8873 net.cpp:106] Creating Layer relu5_1
I0903 00:38:01.384333  8873 net.cpp:454] relu5_1 <- conv5_1
I0903 00:38:01.384338  8873 net.cpp:397] relu5_1 -> conv5_1 (in-place)
I0903 00:38:01.384346  8873 net.cpp:150] Setting up relu5_1
I0903 00:38:01.384348  8873 net.cpp:157] Top shape: 2 512 19 63 (1225728)
I0903 00:38:01.384351  8873 net.cpp:165] Memory required for data: 1357972856
I0903 00:38:01.384353  8873 layer_factory.hpp:77] Creating layer conv5_2
I0903 00:38:01.384359  8873 net.cpp:106] Creating Layer conv5_2
I0903 00:38:01.384361  8873 net.cpp:454] conv5_2 <- conv5_1
I0903 00:38:01.384366  8873 net.cpp:411] conv5_2 -> conv5_2
I0903 00:38:01.387670  8873 net.cpp:150] Setting up conv5_2
I0903 00:38:01.387698  8873 net.cpp:157] Top shape: 2 512 19 63 (1225728)
I0903 00:38:01.387701  8873 net.cpp:165] Memory required for data: 1362875768
I0903 00:38:01.387707  8873 layer_factory.hpp:77] Creating layer relu5_2
I0903 00:38:01.387713  8873 net.cpp:106] Creating Layer relu5_2
I0903 00:38:01.387718  8873 net.cpp:454] relu5_2 <- conv5_2
I0903 00:38:01.387723  8873 net.cpp:397] relu5_2 -> conv5_2 (in-place)
I0903 00:38:01.387729  8873 net.cpp:150] Setting up relu5_2
I0903 00:38:01.387733  8873 net.cpp:157] Top shape: 2 512 19 63 (1225728)
I0903 00:38:01.387735  8873 net.cpp:165] Memory required for data: 1367778680
I0903 00:38:01.387738  8873 layer_factory.hpp:77] Creating layer conv5_3
I0903 00:38:01.387743  8873 net.cpp:106] Creating Layer conv5_3
I0903 00:38:01.387747  8873 net.cpp:454] conv5_3 <- conv5_2
I0903 00:38:01.387750  8873 net.cpp:411] conv5_3 -> conv5_3
I0903 00:38:01.391047  8873 net.cpp:150] Setting up conv5_3
I0903 00:38:01.391073  8873 net.cpp:157] Top shape: 2 512 19 63 (1225728)
I0903 00:38:01.391077  8873 net.cpp:165] Memory required for data: 1372681592
I0903 00:38:01.391083  8873 layer_factory.hpp:77] Creating layer relu5_3
I0903 00:38:01.391096  8873 net.cpp:106] Creating Layer relu5_3
I0903 00:38:01.391101  8873 net.cpp:454] relu5_3 <- conv5_3
I0903 00:38:01.391106  8873 net.cpp:397] relu5_3 -> conv5_3 (in-place)
I0903 00:38:01.391113  8873 net.cpp:150] Setting up relu5_3
I0903 00:38:01.391118  8873 net.cpp:157] Top shape: 2 512 19 63 (1225728)
I0903 00:38:01.391119  8873 net.cpp:165] Memory required for data: 1377584504
I0903 00:38:01.391122  8873 layer_factory.hpp:77] Creating layer conv5_3_relu5_3_0_split
I0903 00:38:01.391125  8873 net.cpp:106] Creating Layer conv5_3_relu5_3_0_split
I0903 00:38:01.391129  8873 net.cpp:454] conv5_3_relu5_3_0_split <- conv5_3
I0903 00:38:01.391131  8873 net.cpp:411] conv5_3_relu5_3_0_split -> conv5_3_relu5_3_0_split_0
I0903 00:38:01.391136  8873 net.cpp:411] conv5_3_relu5_3_0_split -> conv5_3_relu5_3_0_split_1
I0903 00:38:01.391160  8873 net.cpp:150] Setting up conv5_3_relu5_3_0_split
I0903 00:38:01.391165  8873 net.cpp:157] Top shape: 2 512 19 63 (1225728)
I0903 00:38:01.391167  8873 net.cpp:157] Top shape: 2 512 19 63 (1225728)
I0903 00:38:01.391170  8873 net.cpp:165] Memory required for data: 1387390328
I0903 00:38:01.391172  8873 layer_factory.hpp:77] Creating layer roi_pool5
I0903 00:38:01.391180  8873 net.cpp:106] Creating Layer roi_pool5
I0903 00:38:01.391183  8873 net.cpp:454] roi_pool5 <- conv5_3_relu5_3_0_split_0
I0903 00:38:01.391187  8873 net.cpp:454] roi_pool5 <- rois
I0903 00:38:01.391191  8873 net.cpp:411] roi_pool5 -> pool5
I0903 00:38:01.391196  8873 roi_pooling_layer.cpp:30] Spatial scale: 0.0625
I0903 00:38:01.391222  8873 net.cpp:150] Setting up roi_pool5
I0903 00:38:01.391240  8873 net.cpp:157] Top shape: 1 512 7 7 (25088)
I0903 00:38:01.391243  8873 net.cpp:165] Memory required for data: 1387490680
I0903 00:38:01.391245  8873 layer_factory.hpp:77] Creating layer fc6
I0903 00:38:01.391257  8873 net.cpp:106] Creating Layer fc6
I0903 00:38:01.391259  8873 net.cpp:454] fc6 <- pool5
I0903 00:38:01.391266  8873 net.cpp:411] fc6 -> fc6
I0903 00:38:01.560633  8873 net.cpp:150] Setting up fc6
I0903 00:38:01.560659  8873 net.cpp:157] Top shape: 1 4096 (4096)
I0903 00:38:01.560662  8873 net.cpp:165] Memory required for data: 1387507064
I0903 00:38:01.560670  8873 layer_factory.hpp:77] Creating layer relu6
I0903 00:38:01.560678  8873 net.cpp:106] Creating Layer relu6
I0903 00:38:01.560681  8873 net.cpp:454] relu6 <- fc6
I0903 00:38:01.560685  8873 net.cpp:397] relu6 -> fc6 (in-place)
I0903 00:38:01.560693  8873 net.cpp:150] Setting up relu6
I0903 00:38:01.560696  8873 net.cpp:157] Top shape: 1 4096 (4096)
I0903 00:38:01.560698  8873 net.cpp:165] Memory required for data: 1387523448
I0903 00:38:01.560701  8873 layer_factory.hpp:77] Creating layer drop6
I0903 00:38:01.560706  8873 net.cpp:106] Creating Layer drop6
I0903 00:38:01.560709  8873 net.cpp:454] drop6 <- fc6
I0903 00:38:01.560712  8873 net.cpp:397] drop6 -> fc6 (in-place)
I0903 00:38:01.560734  8873 net.cpp:150] Setting up drop6
I0903 00:38:01.560739  8873 net.cpp:157] Top shape: 1 4096 (4096)
I0903 00:38:01.560741  8873 net.cpp:165] Memory required for data: 1387539832
I0903 00:38:01.560744  8873 layer_factory.hpp:77] Creating layer fc7
I0903 00:38:01.560747  8873 net.cpp:106] Creating Layer fc7
I0903 00:38:01.560750  8873 net.cpp:454] fc7 <- fc6
I0903 00:38:01.560755  8873 net.cpp:411] fc7 -> fc7
I0903 00:38:01.588122  8873 net.cpp:150] Setting up fc7
I0903 00:38:01.588150  8873 net.cpp:157] Top shape: 1 4096 (4096)
I0903 00:38:01.588153  8873 net.cpp:165] Memory required for data: 1387556216
I0903 00:38:01.588160  8873 layer_factory.hpp:77] Creating layer relu7
I0903 00:38:01.588168  8873 net.cpp:106] Creating Layer relu7
I0903 00:38:01.588172  8873 net.cpp:454] relu7 <- fc7
I0903 00:38:01.588177  8873 net.cpp:397] relu7 -> fc7 (in-place)
I0903 00:38:01.588184  8873 net.cpp:150] Setting up relu7
I0903 00:38:01.588188  8873 net.cpp:157] Top shape: 1 4096 (4096)
I0903 00:38:01.588191  8873 net.cpp:165] Memory required for data: 1387572600
I0903 00:38:01.588193  8873 layer_factory.hpp:77] Creating layer drop7
I0903 00:38:01.588204  8873 net.cpp:106] Creating Layer drop7
I0903 00:38:01.588207  8873 net.cpp:454] drop7 <- fc7
I0903 00:38:01.588212  8873 net.cpp:397] drop7 -> fc7 (in-place)
I0903 00:38:01.588227  8873 net.cpp:150] Setting up drop7
I0903 00:38:01.588232  8873 net.cpp:157] Top shape: 1 4096 (4096)
I0903 00:38:01.588234  8873 net.cpp:165] Memory required for data: 1387588984
I0903 00:38:01.588237  8873 layer_factory.hpp:77] Creating layer fc7_drop7_0_split
I0903 00:38:01.588241  8873 net.cpp:106] Creating Layer fc7_drop7_0_split
I0903 00:38:01.588244  8873 net.cpp:454] fc7_drop7_0_split <- fc7
I0903 00:38:01.588248  8873 net.cpp:411] fc7_drop7_0_split -> fc7_drop7_0_split_0
I0903 00:38:01.588251  8873 net.cpp:411] fc7_drop7_0_split -> fc7_drop7_0_split_1
I0903 00:38:01.588274  8873 net.cpp:150] Setting up fc7_drop7_0_split
I0903 00:38:01.588279  8873 net.cpp:157] Top shape: 1 4096 (4096)
I0903 00:38:01.588281  8873 net.cpp:157] Top shape: 1 4096 (4096)
I0903 00:38:01.588284  8873 net.cpp:165] Memory required for data: 1387621752
I0903 00:38:01.588286  8873 layer_factory.hpp:77] Creating layer cls_score
I0903 00:38:01.588291  8873 net.cpp:106] Creating Layer cls_score
I0903 00:38:01.588294  8873 net.cpp:454] cls_score <- fc7_drop7_0_split_0
I0903 00:38:01.588299  8873 net.cpp:411] cls_score -> cls_score
I0903 00:38:01.589977  8873 net.cpp:150] Setting up cls_score
I0903 00:38:01.589982  8873 net.cpp:157] Top shape: 1 21 (21)
I0903 00:38:01.589985  8873 net.cpp:165] Memory required for data: 1387621836
I0903 00:38:01.589990  8873 layer_factory.hpp:77] Creating layer bbox_pred
I0903 00:38:01.589994  8873 net.cpp:106] Creating Layer bbox_pred
I0903 00:38:01.589998  8873 net.cpp:454] bbox_pred <- fc7_drop7_0_split_1
I0903 00:38:01.590003  8873 net.cpp:411] bbox_pred -> bbox_pred
I0903 00:38:01.590672  8873 net.cpp:150] Setting up bbox_pred
I0903 00:38:01.590677  8873 net.cpp:157] Top shape: 1 8 (8)
I0903 00:38:01.590680  8873 net.cpp:165] Memory required for data: 1387621868
I0903 00:38:01.590687  8873 layer_factory.hpp:77] Creating layer loss_cls
I0903 00:38:01.590697  8873 net.cpp:106] Creating Layer loss_cls
I0903 00:38:01.590699  8873 net.cpp:454] loss_cls <- cls_score
I0903 00:38:01.590703  8873 net.cpp:454] loss_cls <- labels
I0903 00:38:01.590708  8873 net.cpp:411] loss_cls -> loss_cls
…
I0903 00:38:01.590852  8873 net.cpp:157] Top shape: (1)
I0903 00:38:01.590855  8873 net.cpp:160]     with loss weight 1
I0903 00:38:01.590858  8873 net.cpp:165] Memory required for data: 1387621876
I0903 00:38:01.590862  8873 layer_factory.hpp:77] Creating layer rpn_conv/3x3
I0903 00:38:01.590867  8873 net.cpp:106] Creating Layer rpn_conv/3x3
I0903 00:38:01.590870  8873 net.cpp:454] rpn_conv/3x3 <- conv5_3_relu5_3_0_split_1
I0903 00:38:01.590874  8873 net.cpp:411] rpn_conv/3x3 -> rpn/output
I0903 00:38:01.635279  8873 net.cpp:150] Setting up rpn_conv/3x3
I0903 00:38:01.635308  8873 net.cpp:157] Top shape: 2 512 19 63 (1225728)
I0903 00:38:01.635310  8873 net.cpp:165] Memory required for data: 1392524788
I0903 00:38:01.635316  8873 layer_factory.hpp:77] Creating layer rpn_relu/3x3
I0903 00:38:01.635324  8873 net.cpp:106] Creating Layer rpn_relu/3x3
I0903 00:38:01.635327  8873 net.cpp:454] rpn_relu/3x3 <- rpn/output
I0903 00:38:01.635339  8873 net.cpp:397] rpn_relu/3x3 -> rpn/output (in-place)
I0903 00:38:01.635347  8873 net.cpp:150] Setting up rpn_relu/3x3
I0903 00:38:01.635350  8873 net.cpp:157] Top shape: 2 512 19 63 (1225728)
I0903 00:38:01.635354  8873 net.cpp:165] Memory required for data: 1397427700
I0903 00:38:01.635356  8873 layer_factory.hpp:77] Creating layer rpn/output_rpn_relu/3x3_0_split
I0903 00:38:01.635360  8873 net.cpp:106] Creating Layer rpn/output_rpn_relu/3x3_0_split
I0903 00:38:01.635362  8873 net.cpp:454] rpn/output_rpn_relu/3x3_0_split <- rpn/output
I0903 00:38:01.635366  8873 net.cpp:411] rpn/output_rpn_relu/3x3_0_split -> rpn/output_rpn_relu/3x3_0_split_0
I0903 00:38:01.635370  8873 net.cpp:411] rpn/output_rpn_relu/3x3_0_split -> rpn/output_rpn_relu/3x3_0_split_1
I0903 00:38:01.635396  8873 net.cpp:150] Setting up rpn/output_rpn_relu/3x3_0_split
I0903 00:38:01.635401  8873 net.cpp:157] Top shape: 2 512 19 63 (1225728)
I0903 00:38:01.635404  8873 net.cpp:157] Top shape: 2 512 19 63 (1225728)
I0903 00:38:01.635406  8873 net.cpp:165] Memory required for data: 1407233524
I0903 00:38:01.635409  8873 layer_factory.hpp:77] Creating layer rpn_cls_score
I0903 00:38:01.635416  8873 net.cpp:106] Creating Layer rpn_cls_score
I0903 00:38:01.635419  8873 net.cpp:454] rpn_cls_score <- rpn/output_rpn_relu/3x3_0_split_0
I0903 00:38:01.635424  8873 net.cpp:411] rpn_cls_score -> rpn_cls_score
I0903 00:38:01.635794  8873 net.cpp:150] Setting up rpn_cls_score
I0903 00:38:01.635812  8873 net.cpp:157] Top shape: 2 18 19 63 (43092)
I0903 00:38:01.635815  8873 net.cpp:165] Memory required for data: 1407405892
I0903 00:38:01.635819  8873 layer_factory.hpp:77] Creating layer rpn_bbox_pred
I0903 00:38:01.635825  8873 net.cpp:106] Creating Layer rpn_bbox_pred
I0903 00:38:01.635828  8873 net.cpp:454] rpn_bbox_pred <- rpn/output_rpn_relu/3x3_0_split_1
I0903 00:38:01.635833  8873 net.cpp:411] rpn_bbox_pred -> rpn_bbox_pred
I0903 00:38:01.636296  8873 net.cpp:150] Setting up rpn_bbox_pred
I0903 00:38:01.636302  8873 net.cpp:157] Top shape: 2 36 19 63 (86184)
I0903 00:38:01.636304  8873 net.cpp:165] Memory required for data: 1407750628
I0903 00:38:01.636308  8873 layer_factory.hpp:77] Creating layer silence_rpn_cls_score
I0903 00:38:01.636313  8873 net.cpp:106] Creating Layer silence_rpn_cls_score
I0903 00:38:01.636317  8873 net.cpp:454] silence_rpn_cls_score <- rpn_cls_score
I0903 00:38:01.636319  8873 net.cpp:150] Setting up silence_rpn_cls_score
…
