…
snapshot_prefix: "vgg16_faster_rcnn"
average_loss: 100
iter_size: 2
I0902 18:07:27.524160  5265 solver.cpp:81] Creating training net from train_net file: models/imagenet/VGG16/faster_rcnn_end2end/train.prototxt
I0902 18:07:27.524982  5265 net.cpp:49] Initializing net from parameters: 
name: "VGG_ILSVRC_16_layers"
state {
  phase: TRAIN
}
layer {
  name: "input-data"
  type: "Python"
  top: "data"
  top: "im_info"
  top: "gt_boxes"
  python_param {
    module: "roi_data_layer.layer"
    layer: "RoIDataLayer"
    param_str: "\'num_classes\': 2"
  }
}
layer {
  name: "conv1_1"
  type: "Convolution"
  bottom: "data"
  top: "conv1_1"
  param {
    lr_mult: 0
    decay_mult: 0
  }
  param {
    lr_mult: 0
    decay_mult: 0
  }
  convolution_param {
    num_output: 64
    pad: 1
    kernel_size: 3
  }
}
layer {
  name: "relu1_1"
  type: "ReLU"
  bottom: "conv1_1"
  top: "conv1_1"
}
layer {
  name: "conv1_2"
  type: "Convolution"
  bottom: "conv1_1"
  top: "conv1_2"
  param {
    lr_mult: 0
    decay_mult: 0
  }
  param {
    lr_mult: 0
    decay_mult: 0
  }
  convolution_param {
    num_output: 64
    pad: 1
    kernel_size: 3
  }
}
layer {
  name: "relu1_2"
  type: "ReLU"
  bottom: "conv1_2"
  top: "conv1_2"
}
layer {
  name: "pool1"
  type: "Pooling"
  bottom: "conv1_2"
  top: "pool1"
  pooling_param {
    pool: MAX
    kernel_size: 2
    stride: 2
  }
}
layer {
  name: "conv2_1"
  type: "Convolution"
  bottom: "pool1"
  top: "conv2_1"
  param {
    lr_mult: 0
    decay_mult: 0
  }
  param {
    lr_mult: 0
    decay_mult: 0
  }
  convolution_param {
    num_output: 128
    pad: 1
    kernel_size: 3
  }
}
layer {
  name: "relu2_1"
  type: "ReLU"
  bottom: "conv2_1"
  top: "conv2_1"
}
layer {
  name: "conv2_2"
  type: "Convolution"
  bottom: "conv2_1"
  top: "conv2_2"
  param {
    lr_mult: 0
    decay_mult: 0
  }
  param {
    lr_mult: 0
    decay_mult: 0
  }
  convolution_param {
    num_output: 128
    pad: 1
    kernel_size: 3
  }
}
layer {
  name: "relu2_2"
  type: "ReLU"
  bottom: "conv2_2"
  top: "conv2_2"
}
layer {
  name: "pool2"
  type: "Pooling"
  bottom: "conv2_2"
  top: "pool2"
  pooling_param {
    pool: MAX
    kernel_size: 2
    stride: 2
  }
}
layer {
  name: "conv3_1"
  type: "Convolution"
  bottom: "pool2"
  top: "conv3_1"
  param {
    lr_mult: 1
  }
  param {
    lr_mult: 2
  }
  convolution_param {
    num_output: 256
    pad: 1
    kernel_size: 3
  }
}
layer {
  name: "relu3_1"
  type: "ReLU"
  bottom: "conv3_1"
  top: "conv3_1"
}
layer {
  name: "conv3_2"
  type: "Convolution"
  bottom: "conv3_1"
  top: "conv3_2"
  param {
    lr_mult: 1
  }
  param {
    lr_mult: 2
  }
  convolution_param {
    num_output: 256
    pad: 1
    kernel_size: 3
  }
}
layer {
  name: "relu3_2"
  type: "ReLU"
  bottom: "conv3_2"
  top: "conv3_2"
}
layer {
  name: "conv3_3"
  type: "Convolution"
  bottom: "conv3_2"
  top: "conv3_3"
  param {
    lr_mult: 1
  }
  param {
    lr_mult: 2
  }
  convolution_param {
    num_output: 256
    pad: 1
    kernel_size: 3
  }
}
layer {
  name: "relu3_3"
  type: "ReLU"
  bottom: "conv3_3"
  top: "conv3_3"
}
layer {
  name: "pool3"
  type: "Pooling"
  bottom: "conv3_3"
  top: "pool3"
  pooling_param {
    pool: MAX
    kernel_size: 2
    stride: 2
  }
}
layer {
  name: "conv4_1"
  type: "Convolution"
  bottom: "pool3"
  top: "conv4_1"
  param {
    lr_mult: 1
  }
  param {
    lr_mult: 2
  }
  convolution_param {
    num_output: 512
    pad: 1
    kernel_size: 3
  }
}
layer {
  name: "relu4_1"
  type: "ReLU"
  bottom: "conv4_1"
  top: "conv4_1"
}
layer {
  name: "conv4_2"
  type: "Convolution"
  bottom: "conv4_1"
  top: "conv4_2"
  param {
    lr_mult: 1
  }
  param {
    lr_mult: 2
  }
  convolution_param {
    num_output: 512
    pad: 1
    kernel_size: 3
  }
}
layer {
  name: "relu4_2"
  type: "ReLU"
  bottom: "conv4_2"
  top: "conv4_2"
}
layer {
  name: "conv4_3"
  type: "Convolution"
  bottom: "conv4_2"
  top: "conv4_3"
  param {
    lr_mult: 1
  }
  param {
    lr_mult: 2
  }
  convolution_param {
    num_output: 512
    pad: 1
    kernel_size: 3
  }
}
layer {
  name: "relu4_3"
  type: "ReLU"
  bottom: "conv4_3"
  top: "conv4_3"
}
layer {
  name: "pool4"
  type: "Pooling"
  bottom: "conv4_3"
  top: "pool4"
  pooling_param {
    pool: MAX
    kernel_size: 2
    stride: 2
  }
}
layer {
  name: "conv5_1"
  type: "Convolution"
  bottom: "pool4"
  top: "conv5_1"
  param {
    lr_mult: 1
  }
  param {
    lr_mult: 2
  }
  convolution_param {
    num_output: 512
    pad: 1
    kernel_size: 3
  }
}
layer {
  name: "relu5_1"
  type: "ReLU"
  bottom: "conv5_1"
  top: "conv5_1"
}
layer {
  name: "conv5_2"
  type: "Convolution"
  bottom: "conv5_1"
  top: "conv5_2"
  param {
    lr_mult: 1
  }
  param {
    lr_mult: 2
  }
  convolution_param {
    num_output: 512
    pad: 1
    kernel_size: 3
  }
}
layer {
  name: "relu5_2"
  type: "ReLU"
  bottom: "conv5_2"
  top: "conv5_2"
}
layer {
  name: "conv5_3"
  type: "Convolution"
  bottom: "conv5_2"
  top: "conv5_3"
  param {
    lr_mult: 1
  }
  param {
    lr_mult: 2
  }
  convolution_param {
    num_output: 512
    pad: 1
    kernel_size: 3
  }
}
layer {
  name: "relu5_3"
  type: "ReLU"
  bottom: "conv5_3"
  top: "conv5_3"
}
layer {
  name: "rpn_conv/3x3"
  type: "Convolution"
  bottom: "conv5_3"
  top: "rpn/output"
  param {
    lr_mult: 1
  }
  param {
    lr_mult: 2
  }
  convolution_param {
    num_output: 512
    pad: 1
    kernel_size: 3
    stride: 1
    weight_filler {
      type: "gaussian"
      std: 0.01
    }
    bias_filler {
      type: "constant"
      value: 0
    }
  }
}
layer {
  name: "rpn_relu/3x3"
  type: "ReLU"
  bottom: "rpn/output"
  top: "rpn/output"
}
layer {
  name: "rpn_cls_score"
  type: "Convolution"
  bottom: "rpn/output"
  top: "rpn_cls_score"
  param {
    lr_mult: 1
  }
  param {
    lr_mult: 2
  }
  convolution_param {
    num_output: 18
    pad: 0
    kernel_size: 1
    stride: 1
    weight_filler {
      type: "gaussian"
      std: 0.01
    }
    bias_filler {
      type: "constant"
      value: 0
    }
  }
}
layer {
  name: "rpn_bbox_pred"
  type: "Convolution"
  bottom: "rpn/output"
  top: "rpn_bbox_pred"
  param {
    lr_mult: 1
  }
  param {
    lr_mult: 2
  }
  convolution_param {
    num_output: 36
    pad: 0
    kernel_size: 1
    stride: 1
    weight_filler {
      type: "gaussian"
      std: 0.01
    }
    bias_filler {
      type: "constant"
      value: 0
    }
  }
}
layer {
  name: "rpn_cls_score_reshape"
  type: "Reshape"
  bottom: "rpn_cls_score"
  top: "rpn_cls_score_reshape"
  reshape_param {
    shape {
      dim: 0
      dim: 2
      dim: -1
      dim: 0
    }
  }
}
layer {
  name: "rpn-data"
  type: "Python"
  bottom: "rpn_cls_score"
  bottom: "gt_boxes"
  bottom: "im_info"
  bottom: "data"
  top: "rpn_labels"
  top: "rpn_bbox_targets"
  top: "rpn_bbox_inside_weights"
  top: "rpn_bbox_outside_weights"
  python_param {
    module: "rpn.anchor_target_layer"
    layer: "AnchorTargetLayer"
    param_str: "\'feat_stride\': 16"
  }
}
layer {
  name: "rpn_loss_cls"
  type: "SoftmaxWithLoss"
  bottom: "rpn_cls_score_reshape"
  bottom: "rpn_labels"
  top: "rpn_cls_loss"
  loss_weight: 1
  propagate_down: true
  propagate_down: false
  loss_param {
    ignore_label: -1
    normalize: true
  }
}
layer {
  name: "rpn_loss_bbox"
  type: "SmoothL1Loss"
  bottom: "rpn_bbox_pred"
  bottom: "rpn_bbox_targets"
  bottom: "rpn_bbox_inside_weights"
  bottom: "rpn_bbox_outside_weights"
  top: "rpn_loss_bbox"
  loss_weight: 1
  smooth_l1_loss_param {
    sigma: 3
  }
}
layer {
  name: "rpn_cls_prob"
  type: "Softmax"
  bottom: "rpn_cls_score_reshape"
  top: "rpn_cls_prob"
}
layer {
  name: "rpn_cls_prob_reshape"
  type: "Reshape"
  bottom: "rpn_cls_prob"
  top: "rpn_cls_prob_reshape"
  reshape_param {
    shape {
      dim: 0
      dim: 18
      dim: -1
      dim: 0
    }
  }
}
layer {
  name: "proposal"
  type: "Python"
  bottom: "rpn_cls_prob_reshape"
  bottom: "rpn_bbox_pred"
  bottom: "im_info"
  top: "rpn_rois"
  python_param {
    module: "rpn.proposal_layer"
    layer: "ProposalLayer"
    param_str: "\'feat_stride\': 16"
  }
}
layer {
  name: "roi-data"
  type: "Python"
  bottom: "rpn_rois"
  bottom: "gt_boxes"
  top: "rois"
  top: "labels"
  top: "bbox_targets"
  top: "bbox_inside_weights"
  top: "bbox_outside_weights"
  python_param {
    module: "rpn.proposal_target_layer"
    layer: "ProposalTargetLayer"
    param_str: "\'num_classes\': 2"
  }
}
layer {
  name: "roi_pool5"
  type: "ROIPooling"
  bottom: "conv5_3"
  bottom: "rois"
  top: "pool5"
  roi_pooling_param {
    pooled_h: 7
    pooled_w: 7
    spatial_scale: 0.0625
  }
}
layer {
  name: "fc6"
  type: "InnerProduct"
  bottom: "pool5"
  top: "fc6"
  param {
    lr_mult: 1
  }
  param {
    lr_mult: 2
  }
  inner_product_param {
    num_output: 4096
  }
}
layer {
  name: "relu6"
  type: "ReLU"
  bottom: "fc6"
  top: "fc6"
}
layer {
  name: "drop6"
  type: "Dropout"
  bottom: "fc6"
  top: "fc6"
  dropout_param {
    dropout_ratio: 0.5
  }
}
layer {
  name: "fc7"
  type: "InnerProduct"
  bottom: "fc6"
  top: "fc7"
  param {
    lr_mult: 1
  }
  param {
    lr_mult: 2
  }
  inner_product_param {
    num_output: 4096
  }
}
layer {
  name: "relu7"
  type: "ReLU"
  bottom: "fc7"
  top: "fc7"
}
layer {
  name: "drop7"
  type: "Dropout"
  bottom: "fc7"
  top: "fc7"
  dropout_param {
    dropout_ratio: 0.5
  }
}
layer {
  name: "cls_score"
  type: "InnerProduct"
  bottom: "fc7"
  top: "cls_score"
  param {
    lr_mult: 1
  }
  param {
    lr_mult: 2
  }
  inner_product_param {
    num_output: 2
    weight_filler {
      type: "gaussian"
      std: 0.01
    }
    bias_filler {
      type: "constant"
      value: 0
    }
  }
}
layer {
  name: "bbox_pred"
  type: "InnerProduct"
  bottom: "fc7"
  top: "bbox_pred"
  param {
    lr_mult: 1
  }
  param {
    lr_mult: 2
  }
  inner_product_param {
    num_output: 8
    weight_filler {
      type: "gaussian"
      std: 0.001
    }
    bias_filler {
      type: "constant"
      value: 0
    }
  }
}
layer {
  name: "loss_cls"
  type: "SoftmaxWithLoss"
  bottom: "cls_score"
  bottom: "labels"
  top: "loss_cls"
  loss_weight: 1
  propagate_down: true
  propagate_down: false
}
layer {
  name: "loss_bbox"
  type: "SmoothL1Loss"
  bottom: "bbox_pred"
  bottom: "bbox_targets"
  bottom: "bbox_inside_weights"
  bottom: "bbox_outside_weights"
  top: "loss_bbox"
  loss_weight: 1
}
I0902 18:07:27.525142  5265 layer_factory.hpp:77] Creating layer input-data
I0902 18:07:27.526171  5265 net.cpp:106] Creating Layer input-data
I0902 18:07:27.526181  5265 net.cpp:411] input-data -> data
I0902 18:07:27.526188  5265 net.cpp:411] input-data -> im_info
I0902 18:07:27.526192  5265 net.cpp:411] input-data -> gt_boxes
I0902 18:07:27.757125  5265 net.cpp:150] Setting up input-data
I0902 18:07:27.757149  5265 net.cpp:157] Top shape: 1 3 300 1000 (900000)
I0902 18:07:27.757154  5265 net.cpp:157] Top shape: 1 3 (3)
I0902 18:07:27.757158  5265 net.cpp:157] Top shape: 1 4 (4)
I0902 18:07:27.757159  5265 net.cpp:165] Memory required for data: 3600028
I0902 18:07:27.757164  5265 layer_factory.hpp:77] Creating layer data_input-data_0_split
I0902 18:07:27.757174  5265 net.cpp:106] Creating Layer data_input-data_0_split
I0902 18:07:27.757176  5265 net.cpp:454] data_input-data_0_split <- data
I0902 18:07:27.757181  5265 net.cpp:411] data_input-data_0_split -> data_input-data_0_split_0
I0902 18:07:27.757189  5265 net.cpp:411] data_input-data_0_split -> data_input-data_0_split_1
I0902 18:07:27.757236  5265 net.cpp:150] Setting up data_input-data_0_split
I0902 18:07:27.757246  5265 net.cpp:157] Top shape: 1 3 300 1000 (900000)
I0902 18:07:27.757249  5265 net.cpp:157] Top shape: 1 3 300 1000 (900000)
I0902 18:07:27.757269  5265 net.cpp:165] Memory required for data: 10800028
I0902 18:07:27.757272  5265 layer_factory.hpp:77] Creating layer im_info_input-data_1_split
I0902 18:07:27.757277  5265 net.cpp:106] Creating Layer im_info_input-data_1_split
I0902 18:07:27.757280  5265 net.cpp:454] im_info_input-data_1_split <- im_info
I0902 18:07:27.757283  5265 net.cpp:411] im_info_input-data_1_split -> im_info_input-data_1_split_0
I0902 18:07:27.757288  5265 net.cpp:411] im_info_input-data_1_split -> im_info_input-data_1_split_1
I0902 18:07:27.757308  5265 net.cpp:150] Setting up im_info_input-data_1_split
I0902 18:07:27.757311  5265 net.cpp:157] Top shape: 1 3 (3)
I0902 18:07:27.757314  5265 net.cpp:157] Top shape: 1 3 (3)
I0902 18:07:27.757318  5265 net.cpp:165] Memory required for data: 10800052
I0902 18:07:27.757319  5265 layer_factory.hpp:77] Creating layer gt_boxes_input-data_2_split
I0902 18:07:27.757323  5265 net.cpp:106] Creating Layer gt_boxes_input-data_2_split
I0902 18:07:27.757326  5265 net.cpp:454] gt_boxes_input-data_2_split <- gt_boxes
I0902 18:07:27.757330  5265 net.cpp:411] gt_boxes_input-data_2_split -> gt_boxes_input-data_2_split_0
I0902 18:07:27.757335  5265 net.cpp:411] gt_boxes_input-data_2_split -> gt_boxes_input-data_2_split_1
I0902 18:07:27.757354  5265 net.cpp:150] Setting up gt_boxes_input-data_2_split
I0902 18:07:27.757359  5265 net.cpp:157] Top shape: 1 4 (4)
I0902 18:07:27.757361  5265 net.cpp:157] Top shape: 1 4 (4)
I0902 18:07:27.757364  5265 net.cpp:165] Memory required for data: 10800084
I0902 18:07:27.757366  5265 layer_factory.hpp:77] Creating layer conv1_1
I0902 18:07:27.757372  5265 net.cpp:106] Creating Layer conv1_1
I0902 18:07:27.757375  5265 net.cpp:454] conv1_1 <- data_input-data_0_split_0
I0902 18:07:27.757380  5265 net.cpp:411] conv1_1 -> conv1_1
I0902 18:07:27.758647  5265 net.cpp:150] Setting up conv1_1
I0902 18:07:27.758657  5265 net.cpp:157] Top shape: 1 64 300 1000 (19200000)
I0902 18:07:27.758661  5265 net.cpp:165] Memory required for data: 87600084
I0902 18:07:27.758667  5265 layer_factory.hpp:77] Creating layer relu1_1
I0902 18:07:27.758672  5265 net.cpp:106] Creating Layer relu1_1
I0902 18:07:27.758675  5265 net.cpp:454] relu1_1 <- conv1_1
I0902 18:07:27.758679  5265 net.cpp:397] relu1_1 -> conv1_1 (in-place)
I0902 18:07:27.758684  5265 net.cpp:150] Setting up relu1_1
I0902 18:07:27.758688  5265 net.cpp:157] Top shape: 1 64 300 1000 (19200000)
I0902 18:07:27.758690  5265 net.cpp:165] Memory required for data: 164400084
I0902 18:07:27.758693  5265 layer_factory.hpp:77] Creating layer conv1_2
I0902 18:07:27.758698  5265 net.cpp:106] Creating Layer conv1_2
I0902 18:07:27.758702  5265 net.cpp:454] conv1_2 <- conv1_1
I0902 18:07:27.758705  5265 net.cpp:411] conv1_2 -> conv1_2
I0902 18:07:27.759874  5265 net.cpp:150] Setting up conv1_2
I0902 18:07:27.759886  5265 net.cpp:157] Top shape: 1 64 300 1000 (19200000)
I0902 18:07:27.759888  5265 net.cpp:165] Memory required for data: 241200084
I0902 18:07:27.759894  5265 layer_factory.hpp:77] Creating layer relu1_2
I0902 18:07:27.759899  5265 net.cpp:106] Creating Layer relu1_2
I0902 18:07:27.759902  5265 net.cpp:454] relu1_2 <- conv1_2
I0902 18:07:27.759907  5265 net.cpp:397] relu1_2 -> conv1_2 (in-place)
I0902 18:07:27.759910  5265 net.cpp:150] Setting up relu1_2
I0902 18:07:27.759914  5265 net.cpp:157] Top shape: 1 64 300 1000 (19200000)
I0902 18:07:27.759917  5265 net.cpp:165] Memory required for data: 318000084
I0902 18:07:27.759919  5265 layer_factory.hpp:77] Creating layer pool1
I0902 18:07:27.759923  5265 net.cpp:106] Creating Layer pool1
I0902 18:07:27.759927  5265 net.cpp:454] pool1 <- conv1_2
I0902 18:07:27.759930  5265 net.cpp:411] pool1 -> pool1
I0902 18:07:27.759955  5265 net.cpp:150] Setting up pool1
I0902 18:07:27.759959  5265 net.cpp:157] Top shape: 1 64 150 500 (4800000)
I0902 18:07:27.759961  5265 net.cpp:165] Memory required for data: 337200084
I0902 18:07:27.759964  5265 layer_factory.hpp:77] Creating layer conv2_1
I0902 18:07:27.759970  5265 net.cpp:106] Creating Layer conv2_1
I0902 18:07:27.759974  5265 net.cpp:454] conv2_1 <- pool1
I0902 18:07:27.759981  5265 net.cpp:411] conv2_1 -> conv2_1
I0902 18:07:27.760167  5265 net.cpp:150] Setting up conv2_1
I0902 18:07:27.760172  5265 net.cpp:157] Top shape: 1 128 150 500 (9600000)
I0902 18:07:27.760175  5265 net.cpp:165] Memory required for data: 375600084
I0902 18:07:27.760180  5265 layer_factory.hpp:77] Creating layer relu2_1
I0902 18:07:27.760184  5265 net.cpp:106] Creating Layer relu2_1
I0902 18:07:27.760186  5265 net.cpp:454] relu2_1 <- conv2_1
I0902 18:07:27.760190  5265 net.cpp:397] relu2_1 -> conv2_1 (in-place)
I0902 18:07:27.760195  5265 net.cpp:150] Setting up relu2_1
I0902 18:07:27.760198  5265 net.cpp:157] Top shape: 1 128 150 500 (9600000)
I0902 18:07:27.760200  5265 net.cpp:165] Memory required for data: 414000084
I0902 18:07:27.760203  5265 layer_factory.hpp:77] Creating layer conv2_2
I0902 18:07:27.760207  5265 net.cpp:106] Creating Layer conv2_2
I0902 18:07:27.760210  5265 net.cpp:454] conv2_2 <- conv2_1
I0902 18:07:27.760215  5265 net.cpp:411] conv2_2 -> conv2_2
I0902 18:07:27.760474  5265 net.cpp:150] Setting up conv2_2
I0902 18:07:27.760480  5265 net.cpp:157] Top shape: 1 128 150 500 (9600000)
I0902 18:07:27.760495  5265 net.cpp:165] Memory required for data: 452400084
I0902 18:07:27.760499  5265 layer_factory.hpp:77] Creating layer relu2_2
I0902 18:07:27.760504  5265 net.cpp:106] Creating Layer relu2_2
I0902 18:07:27.760506  5265 net.cpp:454] relu2_2 <- conv2_2
I0902 18:07:27.760509  5265 net.cpp:397] relu2_2 -> conv2_2 (in-place)
I0902 18:07:27.760514  5265 net.cpp:150] Setting up relu2_2
I0902 18:07:27.760516  5265 net.cpp:157] Top shape: 1 128 150 500 (9600000)
I0902 18:07:27.760519  5265 net.cpp:165] Memory required for data: 490800084
I0902 18:07:27.760521  5265 layer_factory.hpp:77] Creating layer pool2
I0902 18:07:27.760526  5265 net.cpp:106] Creating Layer pool2
I0902 18:07:27.760529  5265 net.cpp:454] pool2 <- conv2_2
I0902 18:07:27.760532  5265 net.cpp:411] pool2 -> pool2
I0902 18:07:27.760553  5265 net.cpp:150] Setting up pool2
I0902 18:07:27.760557  5265 net.cpp:157] Top shape: 1 128 75 250 (2400000)
I0902 18:07:27.760560  5265 net.cpp:165] Memory required for data: 500400084
I0902 18:07:27.760562  5265 layer_factory.hpp:77] Creating layer conv3_1
I0902 18:07:27.760567  5265 net.cpp:106] Creating Layer conv3_1
I0902 18:07:27.760570  5265 net.cpp:454] conv3_1 <- pool2
I0902 18:07:27.760573  5265 net.cpp:411] conv3_1 -> conv3_1
I0902 18:07:27.761319  5265 net.cpp:150] Setting up conv3_1
I0902 18:07:27.761342  5265 net.cpp:157] Top shape: 1 256 75 250 (4800000)
I0902 18:07:27.761344  5265 net.cpp:165] Memory required for data: 519600084
I0902 18:07:27.761350  5265 layer_factory.hpp:77] Creating layer relu3_1
I0902 18:07:27.761354  5265 net.cpp:106] Creating Layer relu3_1
I0902 18:07:27.761358  5265 net.cpp:454] relu3_1 <- conv3_1
I0902 18:07:27.761361  5265 net.cpp:397] relu3_1 -> conv3_1 (in-place)
I0902 18:07:27.761366  5265 net.cpp:150] Setting up relu3_1
I0902 18:07:27.761369  5265 net.cpp:157] Top shape: 1 256 75 250 (4800000)
I0902 18:07:27.761373  5265 net.cpp:165] Memory required for data: 538800084
I0902 18:07:27.761374  5265 layer_factory.hpp:77] Creating layer conv3_2
I0902 18:07:27.761380  5265 net.cpp:106] Creating Layer conv3_2
I0902 18:07:27.761384  5265 net.cpp:454] conv3_2 <- conv3_1
I0902 18:07:27.761387  5265 net.cpp:411] conv3_2 -> conv3_2
I0902 18:07:27.762300  5265 net.cpp:150] Setting up conv3_2
I0902 18:07:27.762308  5265 net.cpp:157] Top shape: 1 256 75 250 (4800000)
I0902 18:07:27.762310  5265 net.cpp:165] Memory required for data: 558000084
I0902 18:07:27.762315  5265 layer_factory.hpp:77] Creating layer relu3_2
I0902 18:07:27.762320  5265 net.cpp:106] Creating Layer relu3_2
I0902 18:07:27.762323  5265 net.cpp:454] relu3_2 <- conv3_2
I0902 18:07:27.762327  5265 net.cpp:397] relu3_2 -> conv3_2 (in-place)
I0902 18:07:27.762331  5265 net.cpp:150] Setting up relu3_2
I0902 18:07:27.762334  5265 net.cpp:157] Top shape: 1 256 75 250 (4800000)
I0902 18:07:27.762337  5265 net.cpp:165] Memory required for data: 577200084
I0902 18:07:27.762343  5265 layer_factory.hpp:77] Creating layer conv3_3
I0902 18:07:27.762348  5265 net.cpp:106] Creating Layer conv3_3
I0902 18:07:27.762351  5265 net.cpp:454] conv3_3 <- conv3_2
I0902 18:07:27.762356  5265 net.cpp:411] conv3_3 -> conv3_3
I0902 18:07:27.763267  5265 net.cpp:150] Setting up conv3_3
I0902 18:07:27.763275  5265 net.cpp:157] Top shape: 1 256 75 250 (4800000)
I0902 18:07:27.763278  5265 net.cpp:165] Memory required for data: 596400084
I0902 18:07:27.763283  5265 layer_factory.hpp:77] Creating layer relu3_3
I0902 18:07:27.763286  5265 net.cpp:106] Creating Layer relu3_3
I0902 18:07:27.763289  5265 net.cpp:454] relu3_3 <- conv3_3
I0902 18:07:27.763293  5265 net.cpp:397] relu3_3 -> conv3_3 (in-place)
I0902 18:07:27.763298  5265 net.cpp:150] Setting up relu3_3
I0902 18:07:27.763301  5265 net.cpp:157] Top shape: 1 256 75 250 (4800000)
I0902 18:07:27.763304  5265 net.cpp:165] Memory required for data: 615600084
I0902 18:07:27.763306  5265 layer_factory.hpp:77] Creating layer pool3
I0902 18:07:27.763310  5265 net.cpp:106] Creating Layer pool3
I0902 18:07:27.763314  5265 net.cpp:454] pool3 <- conv3_3
I0902 18:07:27.763317  5265 net.cpp:411] pool3 -> pool3
I0902 18:07:27.763340  5265 net.cpp:150] Setting up pool3
I0902 18:07:27.763345  5265 net.cpp:157] Top shape: 1 256 38 125 (1216000)
I0902 18:07:27.763348  5265 net.cpp:165] Memory required for data: 620464084
I0902 18:07:27.763350  5265 layer_factory.hpp:77] Creating layer conv4_1
I0902 18:07:27.763355  5265 net.cpp:106] Creating Layer conv4_1
I0902 18:07:27.763357  5265 net.cpp:454] conv4_1 <- pool3
I0902 18:07:27.763361  5265 net.cpp:411] conv4_1 -> conv4_1
I0902 18:07:27.765854  5265 net.cpp:150] Setting up conv4_1
I0902 18:07:27.765875  5265 net.cpp:157] Top shape: 1 512 38 125 (2432000)
I0902 18:07:27.765878  5265 net.cpp:165] Memory required for data: 630192084
I0902 18:07:27.765884  5265 layer_factory.hpp:77] Creating layer relu4_1
I0902 18:07:27.765892  5265 net.cpp:106] Creating Layer relu4_1
I0902 18:07:27.765894  5265 net.cpp:454] relu4_1 <- conv4_1
I0902 18:07:27.765899  5265 net.cpp:397] relu4_1 -> conv4_1 (in-place)
I0902 18:07:27.765905  5265 net.cpp:150] Setting up relu4_1
I0902 18:07:27.765909  5265 net.cpp:157] Top shape: 1 512 38 125 (2432000)
I0902 18:07:27.765913  5265 net.cpp:165] Memory required for data: 639920084
I0902 18:07:27.765914  5265 layer_factory.hpp:77] Creating layer conv4_2
I0902 18:07:27.765920  5265 net.cpp:106] Creating Layer conv4_2
I0902 18:07:27.765923  5265 net.cpp:454] conv4_2 <- conv4_1
I0902 18:07:27.765928  5265 net.cpp:411] conv4_2 -> conv4_2
I0902 18:07:27.769062  5265 net.cpp:150] Setting up conv4_2
I0902 18:07:27.769083  5265 net.cpp:157] Top shape: 1 512 38 125 (2432000)
I0902 18:07:27.769086  5265 net.cpp:165] Memory required for data: 649648084
I0902 18:07:27.769096  5265 layer_factory.hpp:77] Creating layer relu4_2
I0902 18:07:27.769104  5265 net.cpp:106] Creating Layer relu4_2
I0902 18:07:27.769107  5265 net.cpp:454] relu4_2 <- conv4_2
I0902 18:07:27.769111  5265 net.cpp:397] relu4_2 -> conv4_2 (in-place)
I0902 18:07:27.769117  5265 net.cpp:150] Setting up relu4_2
I0902 18:07:27.769121  5265 net.cpp:157] Top shape: 1 512 38 125 (2432000)
I0902 18:07:27.769124  5265 net.cpp:165] Memory required for data: 659376084
I0902 18:07:27.769126  5265 layer_factory.hpp:77] Creating layer conv4_3
I0902 18:07:27.769132  5265 net.cpp:106] Creating Layer conv4_3
I0902 18:07:27.769134  5265 net.cpp:454] conv4_3 <- conv4_2
I0902 18:07:27.769138  5265 net.cpp:411] conv4_3 -> conv4_3
I0902 18:07:27.772590  5265 net.cpp:150] Setting up conv4_3
I0902 18:07:27.772615  5265 net.cpp:157] Top shape: 1 512 38 125 (2432000)
I0902 18:07:27.772619  5265 net.cpp:165] Memory required for data: 669104084
I0902 18:07:27.772624  5265 layer_factory.hpp:77] Creating layer relu4_3
I0902 18:07:27.772629  5265 net.cpp:106] Creating Layer relu4_3
I0902 18:07:27.772634  5265 net.cpp:454] relu4_3 <- conv4_3
I0902 18:07:27.772639  5265 net.cpp:397] relu4_3 -> conv4_3 (in-place)
I0902 18:07:27.772644  5265 net.cpp:150] Setting up relu4_3
I0902 18:07:27.772655  5265 net.cpp:157] Top shape: 1 512 38 125 (2432000)
I0902 18:07:27.772657  5265 net.cpp:165] Memory required for data: 678832084
I0902 18:07:27.772660  5265 layer_factory.hpp:77] Creating layer pool4
I0902 18:07:27.772665  5265 net.cpp:106] Creating Layer pool4
I0902 18:07:27.772667  5265 net.cpp:454] pool4 <- conv4_3
I0902 18:07:27.772671  5265 net.cpp:411] pool4 -> pool4
I0902 18:07:27.772696  5265 net.cpp:150] Setting up pool4
I0902 18:07:27.772701  5265 net.cpp:157] Top shape: 1 512 19 63 (612864)
I0902 18:07:27.772702  5265 net.cpp:165] Memory required for data: 681283540
I0902 18:07:27.772706  5265 layer_factory.hpp:77] Creating layer conv5_1
I0902 18:07:27.772712  5265 net.cpp:106] Creating Layer conv5_1
I0902 18:07:27.772716  5265 net.cpp:454] conv5_1 <- pool4
I0902 18:07:27.772719  5265 net.cpp:411] conv5_1 -> conv5_1
I0902 18:07:27.775940  5265 net.cpp:150] Setting up conv5_1
I0902 18:07:27.775969  5265 net.cpp:157] Top shape: 1 512 19 63 (612864)
I0902 18:07:27.775974  5265 net.cpp:165] Memory required for data: 683734996
I0902 18:07:27.775979  5265 layer_factory.hpp:77] Creating layer relu5_1
I0902 18:07:27.775985  5265 net.cpp:106] Creating Layer relu5_1
I0902 18:07:27.775990  5265 net.cpp:454] relu5_1 <- conv5_1
I0902 18:07:27.775995  5265 net.cpp:397] relu5_1 -> conv5_1 (in-place)
I0902 18:07:27.776000  5265 net.cpp:150] Setting up relu5_1
I0902 18:07:27.776005  5265 net.cpp:157] Top shape: 1 512 19 63 (612864)
I0902 18:07:27.776006  5265 net.cpp:165] Memory required for data: 686186452
I0902 18:07:27.776010  5265 layer_factory.hpp:77] Creating layer conv5_2
I0902 18:07:27.776015  5265 net.cpp:106] Creating Layer conv5_2
I0902 18:07:27.776017  5265 net.cpp:454] conv5_2 <- conv5_1
I0902 18:07:27.776022  5265 net.cpp:411] conv5_2 -> conv5_2
I0902 18:07:27.779264  5265 net.cpp:150] Setting up conv5_2
I0902 18:07:27.779292  5265 net.cpp:157] Top shape: 1 512 19 63 (612864)
I0902 18:07:27.779295  5265 net.cpp:165] Memory required for data: 688637908
I0902 18:07:27.779300  5265 layer_factory.hpp:77] Creating layer relu5_2
I0902 18:07:27.779309  5265 net.cpp:106] Creating Layer relu5_2
I0902 18:07:27.779311  5265 net.cpp:454] relu5_2 <- conv5_2
I0902 18:07:27.779316  5265 net.cpp:397] relu5_2 -> conv5_2 (in-place)
I0902 18:07:27.779322  5265 net.cpp:150] Setting up relu5_2
I0902 18:07:27.779325  5265 net.cpp:157] Top shape: 1 512 19 63 (612864)
I0902 18:07:27.779328  5265 net.cpp:165] Memory required for data: 691089364
I0902 18:07:27.779330  5265 layer_factory.hpp:77] Creating layer conv5_3
I0902 18:07:27.779340  5265 net.cpp:106] Creating Layer conv5_3
I0902 18:07:27.779343  5265 net.cpp:454] conv5_3 <- conv5_2
I0902 18:07:27.779347  5265 net.cpp:411] conv5_3 -> conv5_3
I0902 18:07:27.782605  5265 net.cpp:150] Setting up conv5_3
I0902 18:07:27.782634  5265 net.cpp:157] Top shape: 1 512 19 63 (612864)
I0902 18:07:27.782636  5265 net.cpp:165] Memory required for data: 693540820
I0902 18:07:27.782642  5265 layer_factory.hpp:77] Creating layer relu5_3
I0902 18:07:27.782649  5265 net.cpp:106] Creating Layer relu5_3
I0902 18:07:27.782652  5265 net.cpp:454] relu5_3 <- conv5_3
I0902 18:07:27.782657  5265 net.cpp:397] relu5_3 -> conv5_3 (in-place)
I0902 18:07:27.782663  5265 net.cpp:150] Setting up relu5_3
I0902 18:07:27.782666  5265 net.cpp:157] Top shape: 1 512 19 63 (612864)
I0902 18:07:27.782670  5265 net.cpp:165] Memory required for data: 695992276
I0902 18:07:27.782671  5265 layer_factory.hpp:77] Creating layer conv5_3_relu5_3_0_split
I0902 18:07:27.782675  5265 net.cpp:106] Creating Layer conv5_3_relu5_3_0_split
I0902 18:07:27.782678  5265 net.cpp:454] conv5_3_relu5_3_0_split <- conv5_3
I0902 18:07:27.782682  5265 net.cpp:411] conv5_3_relu5_3_0_split -> conv5_3_relu5_3_0_split_0
I0902 18:07:27.782687  5265 net.cpp:411] conv5_3_relu5_3_0_split -> conv5_3_relu5_3_0_split_1
I0902 18:07:27.782709  5265 net.cpp:150] Setting up conv5_3_relu5_3_0_split
I0902 18:07:27.782714  5265 net.cpp:157] Top shape: 1 512 19 63 (612864)
I0902 18:07:27.782717  5265 net.cpp:157] Top shape: 1 512 19 63 (612864)
I0902 18:07:27.782727  5265 net.cpp:165] Memory required for data: 700895188
I0902 18:07:27.782730  5265 layer_factory.hpp:77] Creating layer rpn_conv/3x3
I0902 18:07:27.782737  5265 net.cpp:106] Creating Layer rpn_conv/3x3
I0902 18:07:27.782740  5265 net.cpp:454] rpn_conv/3x3 <- conv5_3_relu5_3_0_split_0
I0902 18:07:27.782744  5265 net.cpp:411] rpn_conv/3x3 -> rpn/output
I0902 18:07:27.827319  5265 net.cpp:150] Setting up rpn_conv/3x3
I0902 18:07:27.827344  5265 net.cpp:157] Top shape: 1 512 19 63 (612864)
I0902 18:07:27.827347  5265 net.cpp:165] Memory required for data: 703346644
I0902 18:07:27.827353  5265 layer_factory.hpp:77] Creating layer rpn_relu/3x3
I0902 18:07:27.827360  5265 net.cpp:106] Creating Layer rpn_relu/3x3
I0902 18:07:27.827363  5265 net.cpp:454] rpn_relu/3x3 <- rpn/output
I0902 18:07:27.827368  5265 net.cpp:397] rpn_relu/3x3 -> rpn/output (in-place)
I0902 18:07:27.827375  5265 net.cpp:150] Setting up rpn_relu/3x3
I0902 18:07:27.827378  5265 net.cpp:157] Top shape: 1 512 19 63 (612864)
I0902 18:07:27.827381  5265 net.cpp:165] Memory required for data: 705798100
I0902 18:07:27.827383  5265 layer_factory.hpp:77] Creating layer rpn/output_rpn_relu/3x3_0_split
I0902 18:07:27.827388  5265 net.cpp:106] Creating Layer rpn/output_rpn_relu/3x3_0_split
I0902 18:07:27.827390  5265 net.cpp:454] rpn/output_rpn_relu/3x3_0_split <- rpn/output
I0902 18:07:27.827394  5265 net.cpp:411] rpn/output_rpn_relu/3x3_0_split -> rpn/output_rpn_relu/3x3_0_split_0
I0902 18:07:27.827399  5265 net.cpp:411] rpn/output_rpn_relu/3x3_0_split -> rpn/output_rpn_relu/3x3_0_split_1
I0902 18:07:27.827420  5265 net.cpp:150] Setting up rpn/output_rpn_relu/3x3_0_split
I0902 18:07:27.827425  5265 net.cpp:157] Top shape: 1 512 19 63 (612864)
I0902 18:07:27.827428  5265 net.cpp:157] Top shape: 1 512 19 63 (612864)
I0902 18:07:27.827430  5265 net.cpp:165] Memory required for data: 710701012
I0902 18:07:27.827433  5265 layer_factory.hpp:77] Creating layer rpn_cls_score
I0902 18:07:27.827440  5265 net.cpp:106] Creating Layer rpn_cls_score
I0902 18:07:27.827442  5265 net.cpp:454] rpn_cls_score <- rpn/output_rpn_relu/3x3_0_split_0
I0902 18:07:27.827448  5265 net.cpp:411] rpn_cls_score -> rpn_cls_score
I0902 18:07:27.827780  5265 net.cpp:150] Setting up rpn_cls_score
I0902 18:07:27.827786  5265 net.cpp:157] Top shape: 1 18 19 63 (21546)
I0902 18:07:27.827788  5265 net.cpp:165] Memory required for data: 710787196
I0902 18:07:27.827792  5265 layer_factory.hpp:77] Creating layer rpn_cls_score_rpn_cls_score_0_split
I0902 18:07:27.827796  5265 net.cpp:106] Creating Layer rpn_cls_score_rpn_cls_score_0_split
I0902 18:07:27.827800  5265 net.cpp:454] rpn_cls_score_rpn_cls_score_0_split <- rpn_cls_score
I0902 18:07:27.827803  5265 net.cpp:411] rpn_cls_score_rpn_cls_score_0_split -> rpn_cls_score_rpn_cls_score_0_split_0
I0902 18:07:27.827811  5265 net.cpp:411] rpn_cls_score_rpn_cls_score_0_split -> rpn_cls_score_rpn_cls_score_0_split_1
I0902 18:07:27.827832  5265 net.cpp:150] Setting up rpn_cls_score_rpn_cls_score_0_split
I0902 18:07:27.827837  5265 net.cpp:157] Top shape: 1 18 19 63 (21546)
I0902 18:07:27.827841  5265 net.cpp:157] Top shape: 1 18 19 63 (21546)
I0902 18:07:27.827842  5265 net.cpp:165] Memory required for data: 710959564
I0902 18:07:27.827846  5265 layer_factory.hpp:77] Creating layer rpn_bbox_pred
I0902 18:07:27.827850  5265 net.cpp:106] Creating Layer rpn_bbox_pred
I0902 18:07:27.827853  5265 net.cpp:454] rpn_bbox_pred <- rpn/output_rpn_relu/3x3_0_split_1
I0902 18:07:27.827858  5265 net.cpp:411] rpn_bbox_pred -> rpn_bbox_pred
I0902 18:07:27.828326  5265 net.cpp:150] Setting up rpn_bbox_pred
I0902 18:07:27.828331  5265 net.cpp:157] Top shape: 1 36 19 63 (43092)
I0902 18:07:27.828335  5265 net.cpp:165] Memory required for data: 711131932
I0902 18:07:27.828338  5265 layer_factory.hpp:77] Creating layer rpn_bbox_pred_rpn_bbox_pred_0_split
I0902 18:07:27.828341  5265 net.cpp:106] Creating Layer rpn_bbox_pred_rpn_bbox_pred_0_split
I0902 18:07:27.828344  5265 net.cpp:454] rpn_bbox_pred_rpn_bbox_pred_0_split <- rpn_bbox_pred
I0902 18:07:27.828349  5265 net.cpp:411] rpn_bbox_pred_rpn_bbox_pred_0_split -> rpn_bbox_pred_rpn_bbox_pred_0_split_0
I0902 18:07:27.828359  5265 net.cpp:411] rpn_bbox_pred_rpn_bbox_pred_0_split -> rpn_bbox_pred_rpn_bbox_pred_0_split_1
I0902 18:07:27.828380  5265 net.cpp:150] Setting up rpn_bbox_pred_rpn_bbox_pred_0_split
I0902 18:07:27.828384  5265 net.cpp:157] Top shape: 1 36 19 63 (43092)
I0902 18:07:27.828388  5265 net.cpp:157] Top shape: 1 36 19 63 (43092)
I0902 18:07:27.828390  5265 net.cpp:165] Memory required for data: 711476668
I0902 18:07:27.828393  5265 layer_factory.hpp:77] Creating layer rpn_cls_score_reshape
I0902 18:07:27.828398  5265 net.cpp:106] Creating Layer rpn_cls_score_reshape
I0902 18:07:27.828402  5265 net.cpp:454] rpn_cls_score_reshape <- rpn_cls_score_rpn_cls_score_0_split_0
I0902 18:07:27.828404  5265 net.cpp:411] rpn_cls_score_reshape -> rpn_cls_score_reshape
I0902 18:07:27.828420  5265 net.cpp:150] Setting up rpn_cls_score_reshape
I0902 18:07:27.828424  5265 net.cpp:157] Top shape: 1 2 171 63 (21546)
I0902 18:07:27.828426  5265 net.cpp:165] Memory required for data: 711562852
I0902 18:07:27.828429  5265 layer_factory.hpp:77] Creating layer rpn_cls_score_reshape_rpn_cls_score_reshape_0_split
I0902 18:07:27.828433  5265 net.cpp:106] Creating Layer rpn_cls_score_reshape_rpn_cls_score_reshape_0_split
I0902 18:07:27.828435  5265 net.cpp:454] rpn_cls_score_reshape_rpn_cls_score_reshape_0_split <- rpn_cls_score_reshape
I0902 18:07:27.828439  5265 net.cpp:411] rpn_cls_score_reshape_rpn_cls_score_reshape_0_split -> rpn_cls_score_reshape_rpn_cls_score_reshape_0_split_0
I0902 18:07:27.828444  5265 net.cpp:411] rpn_cls_score_reshape_rpn_cls_score_reshape_0_split -> rpn_cls_score_reshape_rpn_cls_score_reshape_0_split_1
I0902 18:07:27.828477  5265 net.cpp:150] Setting up rpn_cls_score_reshape_rpn_cls_score_reshape_0_split
I0902 18:07:27.828495  5265 net.cpp:157] Top shape: 1 2 171 63 (21546)
I0902 18:07:27.828497  5265 net.cpp:157] Top shape: 1 2 171 63 (21546)
I0902 18:07:27.828500  5265 net.cpp:165] Memory required for data: 711735220
I0902 18:07:27.828502  5265 layer_factory.hpp:77] Creating layer rpn-data
I0902 18:07:27.828866  5265 net.cpp:106] Creating Layer rpn-data
I0902 18:07:27.828874  5265 net.cpp:454] rpn-data <- rpn_cls_score_rpn_cls_score_0_split_1
I0902 18:07:27.828879  5265 net.cpp:454] rpn-data <- gt_boxes_input-data_2_split_0
I0902 18:07:27.828882  5265 net.cpp:454] rpn-data <- im_info_input-data_1_split_0
I0902 18:07:27.828886  5265 net.cpp:454] rpn-data <- data_input-data_0_split_1
I0902 18:07:27.828889  5265 net.cpp:411] rpn-data -> rpn_labels
I0902 18:07:27.828896  5265 net.cpp:411] rpn-data -> rpn_bbox_targets
I0902 18:07:27.828899  5265 net.cpp:411] rpn-data -> rpn_bbox_inside_weights
I0902 18:07:27.828904  5265 net.cpp:411] rpn-data -> rpn_bbox_outside_weights
I0902 18:07:27.830495  5265 net.cpp:150] Setting up rpn-data
I0902 18:07:27.830508  5265 net.cpp:157] Top shape: 1 1 171 63 (10773)
I0902 18:07:27.830513  5265 net.cpp:157] Top shape: 1 36 19 63 (43092)
I0902 18:07:27.830515  5265 net.cpp:157] Top shape: 1 36 19 63 (43092)
I0902 18:07:27.830518  5265 net.cpp:157] Top shape: 1 36 19 63 (43092)
I0902 18:07:27.830521  5265 net.cpp:165] Memory required for data: 712295416
I0902 18:07:27.830524  5265 layer_factory.hpp:77] Creating layer rpn_loss_cls
I0902 18:07:27.830529  5265 net.cpp:106] Creating Layer rpn_loss_cls
I0902 18:07:27.830533  5265 net.cpp:454] rpn_loss_cls <- rpn_cls_score_reshape_rpn_cls_score_reshape_0_split_0
I0902 18:07:27.830538  5265 net.cpp:454] rpn_loss_cls <- rpn_labels
…
I0902 18:07:27.830878  5265 net.cpp:157] Top shape: (1)
I0902 18:07:27.830880  5265 net.cpp:160]     with loss weight 1
I0902 18:07:27.830884  5265 net.cpp:165] Memory required for data: 712295424
I0902 18:07:27.830886  5265 layer_factory.hpp:77] Creating layer rpn_cls_prob
I0902 18:07:27.830890  5265 net.cpp:106] Creating Layer rpn_cls_prob
I0902 18:07:27.830893  5265 net.cpp:454] rpn_cls_prob <- rpn_cls_score_reshape_rpn_cls_score_reshape_0_split_1
I0902 18:07:27.830896  5265 net.cpp:411] rpn_cls_prob -> rpn_cls_prob
I0902 18:07:27.830935  5265 net.cpp:150] Setting up rpn_cls_prob
I0902 18:07:27.830940  5265 net.cpp:157] Top shape: 1 2 171 63 (21546)
I0902 18:07:27.830942  5265 net.cpp:165] Memory required for data: 712381608
I0902 18:07:27.830945  5265 layer_factory.hpp:77] Creating layer rpn_cls_prob_reshape
I0902 18:07:27.830950  5265 net.cpp:106] Creating Layer rpn_cls_prob_reshape
I0902 18:07:27.830951  5265 net.cpp:454] rpn_cls_prob_reshape <- rpn_cls_prob
I0902 18:07:27.830956  5265 net.cpp:411] rpn_cls_prob_reshape -> rpn_cls_prob_reshape
I0902 18:07:27.830971  5265 net.cpp:150] Setting up rpn_cls_prob_reshape
I0902 18:07:27.830976  5265 net.cpp:157] Top shape: 1 18 19 63 (21546)
I0902 18:07:27.830978  5265 net.cpp:165] Memory required for data: 712467792
I0902 18:07:27.830981  5265 layer_factory.hpp:77] Creating layer proposal
I0902 18:07:27.831408  5265 net.cpp:106] Creating Layer proposal
I0902 18:07:27.831416  5265 net.cpp:454] proposal <- rpn_cls_prob_reshape
I0902 18:07:27.831420  5265 net.cpp:454] proposal <- rpn_bbox_pred_rpn_bbox_pred_0_split_1
I0902 18:07:27.831424  5265 net.cpp:454] proposal <- im_info_input-data_1_split_1
I0902 18:07:27.831429  5265 net.cpp:411] proposal -> rpn_rois
I0902 18:07:27.831948  5265 net.cpp:150] Setting up proposal
I0902 18:07:27.831957  5265 net.cpp:157] Top shape: 1 5 (5)
I0902 18:07:27.831960  5265 net.cpp:165] Memory required for data: 712467812
I0902 18:07:27.831964  5265 layer_factory.hpp:77] Creating layer roi-data
I0902 18:07:27.832056  5265 net.cpp:106] Creating Layer roi-data
I0902 18:07:27.832062  5265 net.cpp:454] roi-data <- rpn_rois
I0902 18:07:27.832067  5265 net.cpp:454] roi-data <- gt_boxes_input-data_2_split_1
I0902 18:07:27.832070  5265 net.cpp:411] roi-data -> rois
I0902 18:07:27.832077  5265 net.cpp:411] roi-data -> labels
I0902 18:07:27.832080  5265 net.cpp:411] roi-data -> bbox_targets
I0902 18:07:27.832085  5265 net.cpp:411] roi-data -> bbox_inside_weights
I0902 18:07:27.832089  5265 net.cpp:411] roi-data -> bbox_outside_weights
I0902 18:07:27.832320  5265 net.cpp:150] Setting up roi-data
I0902 18:07:27.832329  5265 net.cpp:157] Top shape: 1 5 (5)
I0902 18:07:27.832331  5265 net.cpp:157] Top shape: 1 1 (1)
I0902 18:07:27.832334  5265 net.cpp:157] Top shape: 1 8 (8)
I0902 18:07:27.832337  5265 net.cpp:157] Top shape: 1 8 (8)
I0902 18:07:27.832340  5265 net.cpp:157] Top shape: 1 8 (8)
I0902 18:07:27.832343  5265 net.cpp:165] Memory required for data: 712467932
I0902 18:07:27.832345  5265 layer_factory.hpp:77] Creating layer roi_pool5
I0902 18:07:27.832350  5265 net.cpp:106] Creating Layer roi_pool5
I0902 18:07:27.832353  5265 net.cpp:454] roi_pool5 <- conv5_3_relu5_3_0_split_1
I0902 18:07:27.832357  5265 net.cpp:454] roi_pool5 <- rois
I0902 18:07:27.832361  5265 net.cpp:411] roi_pool5 -> pool5
I0902 18:07:27.832366  5265 roi_pooling_layer.cpp:30] Spatial scale: 0.0625
I0902 18:07:27.832391  5265 net.cpp:150] Setting up roi_pool5
I0902 18:07:27.832394  5265 net.cpp:157] Top shape: 1 512 7 7 (25088)
I0902 18:07:27.832397  5265 net.cpp:165] Memory required for data: 712568284
I0902 18:07:27.832402  5265 layer_factory.hpp:77] Creating layer fc6
I0902 18:07:27.832407  5265 net.cpp:106] Creating Layer fc6
I0902 18:07:27.832411  5265 net.cpp:454] fc6 <- pool5
I0902 18:07:27.832415  5265 net.cpp:411] fc6 -> fc6
I0902 18:07:28.011116  5265 net.cpp:150] Setting up fc6
I0902 18:07:28.011138  5265 net.cpp:157] Top shape: 1 4096 (4096)
I0902 18:07:28.011142  5265 net.cpp:165] Memory required for data: 712584668
I0902 18:07:28.011153  5265 layer_factory.hpp:77] Creating layer relu6
I0902 18:07:28.011160  5265 net.cpp:106] Creating Layer relu6
I0902 18:07:28.011165  5265 net.cpp:454] relu6 <- fc6
I0902 18:07:28.011170  5265 net.cpp:397] relu6 -> fc6 (in-place)
I0902 18:07:28.011176  5265 net.cpp:150] Setting up relu6
I0902 18:07:28.011179  5265 net.cpp:157] Top shape: 1 4096 (4096)
I0902 18:07:28.011181  5265 net.cpp:165] Memory required for data: 712601052
I0902 18:07:28.011184  5265 layer_factory.hpp:77] Creating layer drop6
I0902 18:07:28.011189  5265 net.cpp:106] Creating Layer drop6
I0902 18:07:28.011191  5265 net.cpp:454] drop6 <- fc6
I0902 18:07:28.011194  5265 net.cpp:397] drop6 -> fc6 (in-place)
I0902 18:07:28.011211  5265 net.cpp:150] Setting up drop6
I0902 18:07:28.011215  5265 net.cpp:157] Top shape: 1 4096 (4096)
I0902 18:07:28.011219  5265 net.cpp:165] Memory required for data: 712617436
I0902 18:07:28.011221  5265 layer_factory.hpp:77] Creating layer fc7
I0902 18:07:28.011226  5265 net.cpp:106] Creating Layer fc7
I0902 18:07:28.011229  5265 net.cpp:454] fc7 <- fc6
I0902 18:07:28.011232  5265 net.cpp:411] fc7 -> fc7
I0902 18:07:28.038341  5265 net.cpp:150] Setting up fc7
I0902 18:07:28.038367  5265 net.cpp:157] Top shape: 1 4096 (4096)
I0902 18:07:28.038372  5265 net.cpp:165] Memory required for data: 712633820
I0902 18:07:28.038378  5265 layer_factory.hpp:77] Creating layer relu7
I0902 18:07:28.038386  5265 net.cpp:106] Creating Layer relu7
I0902 18:07:28.038389  5265 net.cpp:454] relu7 <- fc7
I0902 18:07:28.038394  5265 net.cpp:397] relu7 -> fc7 (in-place)
I0902 18:07:28.038400  5265 net.cpp:150] Setting up relu7
I0902 18:07:28.038403  5265 net.cpp:157] Top shape: 1 4096 (4096)
I0902 18:07:28.038406  5265 net.cpp:165] Memory required for data: 712650204
I0902 18:07:28.038408  5265 layer_factory.hpp:77] Creating layer drop7
I0902 18:07:28.038414  5265 net.cpp:106] Creating Layer drop7
I0902 18:07:28.038416  5265 net.cpp:454] drop7 <- fc7
I0902 18:07:28.038420  5265 net.cpp:397] drop7 -> fc7 (in-place)
I0902 18:07:28.038435  5265 net.cpp:150] Setting up drop7
I0902 18:07:28.038439  5265 net.cpp:157] Top shape: 1 4096 (4096)
I0902 18:07:28.038442  5265 net.cpp:165] Memory required for data: 712666588
I0902 18:07:28.038444  5265 layer_factory.hpp:77] Creating layer fc7_drop7_0_split
I0902 18:07:28.038450  5265 net.cpp:106] Creating Layer fc7_drop7_0_split
I0902 18:07:28.038452  5265 net.cpp:454] fc7_drop7_0_split <- fc7
I0902 18:07:28.038470  5265 net.cpp:411] fc7_drop7_0_split -> fc7_drop7_0_split_0
I0902 18:07:28.038475  5265 net.cpp:411] fc7_drop7_0_split -> fc7_drop7_0_split_1
I0902 18:07:28.038511  5265 net.cpp:150] Setting up fc7_drop7_0_split
I0902 18:07:28.038516  5265 net.cpp:157] Top shape: 1 4096 (4096)
I0902 18:07:28.038518  5265 net.cpp:157] Top shape: 1 4096 (4096)
I0902 18:07:28.038522  5265 net.cpp:165] Memory required for data: 712699356
I0902 18:07:28.038523  5265 layer_factory.hpp:77] Creating layer cls_score
I0902 18:07:28.038528  5265 net.cpp:106] Creating Layer cls_score
I0902 18:07:28.038532  5265 net.cpp:454] cls_score <- fc7_drop7_0_split_0
I0902 18:07:28.038535  5265 net.cpp:411] cls_score -> cls_score
I0902 18:07:28.038743  5265 net.cpp:150] Setting up cls_score
I0902 18:07:28.038748  5265 net.cpp:157] Top shape: 1 2 (2)
I0902 18:07:28.038750  5265 net.cpp:165] Memory required for data: 712699364
I0902 18:07:28.038753  5265 layer_factory.hpp:77] Creating layer bbox_pred
I0902 18:07:28.038758  5265 net.cpp:106] Creating Layer bbox_pred
I0902 18:07:28.038760  5265 net.cpp:454] bbox_pred <- fc7_drop7_0_split_1
I0902 18:07:28.038764  5265 net.cpp:411] bbox_pred -> bbox_pred
I0902 18:07:28.039448  5265 net.cpp:150] Setting up bbox_pred
I0902 18:07:28.039469  5265 net.cpp:157] Top shape: 1 8 (8)
I0902 18:07:28.039471  5265 net.cpp:165] Memory required for data: 712699396
I0902 18:07:28.039475  5265 layer_factory.hpp:77] Creating layer loss_cls
I0902 18:07:28.039492  5265 net.cpp:106] Creating Layer loss_cls
I0902 18:07:28.039495  5265 net.cpp:454] loss_cls <- cls_score
I0902 18:07:28.039499  5265 net.cpp:454] loss_cls <- labels
I0902 18:07:28.039502  5265 net.cpp:411] loss_cls -> loss_cls
…
